src/checkpoints/Sample/lstm000.ckpt (torch_old, 218304 bytes, 12 tensors)

lstm.weight_ih_l0 f4 [136, 36]
-0.042120866 0.17534386 0.13113238 0.04871392 -0.08468806 0.039042324 0.109298825 -0.04365369
0.03378134 0.06289956 -0.008848246 0.05249638 0.14757477 -0.010192847 0.017521985 -0.043749146
0.06721571 0.066007085 0.11315725 0.08239755 0.0353615 0.008851984 -0.07934414 0.030358
0.0771385 -0.030745024 -0.023914391 -0.0060812505 0.15468991 -0.10153449 0.11155511 -0.037215427
0.04818509 0.0904352 0.017293274 -0.06986145 -0.14330241 -0.11071795 -0.07406057 0.06519708
-0.0865049 0.036403637 0.1649016 0.02440466 -0.031260695 -0.15977672 0.058241427 -0.043944318
0.19794326 0.022335224 -0.10297505 -0.037073705 -0.06866048 0.17670698 -0.10354225 0.105193555
0.015185358 -0.11369987 0.014108279 0.12908366 0.17141417 0.10811775 -0.04934211 0.17309032
0.011627308 -0.1137703 0.18164104 -0.13387775 0.0393762 0.06518645 -0.12581389 -0.10819326
-0.03281142 -0.0278951 -0.014888913 -0.04426511 0.0233854 0.13015829 0.08252547 0.119014084
-0.032918006 -0.1833163 -0.0038386132 0.08504179 -0.087462574 0.19809683 0.035254776 -0.0772798
-0.050788354 0.145026 0.1356966 0.08704644 0.02811673 0.02647206 0.12268901 0.084727086
-0.05870073 0.011921255 0.06667981 -0.085302256 -0.10797754 0.07666668 -0.09312107 0.073075406
0.048649594 -0.089076184 0.032525044 0.016930772 -0.00858422 -0.012081478 0.06810709 -0.08811966
-0.05918407 -0.042861786 0.07579431 -0.11118436 -0.022061775 -0.19096714 -0.10978294 0.033537515
0.029523464 -0.09763297 -0.07073791 0.09520576 -0.09431682 -0.03592966 0.1339364 0.12506464
0.026618525 0.12825069 -0.009117827 -0.052391857 -0.12407588 0.18079968 0.1639079 0.1607075
0.06946962 -0.1409689 -0.053239264 -0.14750198 0.07425795 -0.123600654 -0.10534329 -0.08576189
0.16484143 0.027632436 -0.054194752 0.14479637 0.05806372 0.10524335 0.14339153 0.101007864
0.19304702 -0.042352714 0.14492773 -0.11114548 -0.050592985 -0.13481486 0.03890892 0.05774502
0.013186374 0.17395397 -0.026551148 -0.090014026 0.06915056 -0.12904617 0.12107388 0.08895648
0.11503462 0.04852757 0.1501638 -0.09868341 0.13558131 0.036229305 0.1592083 -0.11021822
-0.009739328 -0.13859268 -0.045178887 0.15139285 0.030232908 -0.16269922 0.094893135 -0.06162425
-0.10419131 0.10921209 0.07865806 0.15878268 -0.008532426 0.13031687 -0.027076771 -0.01968916
0.0806554 -0.07099235 0.046961088 0.02767811 0.043436673 -0.11847402 -0.014679477 -0.030957092
-0.07307002 0.09658409 0.050378982 0.03336496 0.16319619 0.0486745 0.023109106 0.14826769
-0.14440723 0.15695636 0.11649148 0.0905262 0.06662488 -0.103686824 0.12047614 -0.04703306
-0.04874072 0.12965034 0.02906489 -0.06031193 0.21548104 0.16799183 0.11326476 0.07906472
0.24112847 0.04936605 0.022070354 0.033171795 0.07502391 0.11314154 0.021560425 -0.07927304
0.023523211 -0.00206431 0.17452328 0.10341077 -0.015207815 0.02862004 -0.0883333 0.027131375
0.15231062 0.030261625 0.19479616 0.16167748 0.11521962 0.12854148 0.09090484 0.2213719
-0.009103375 0.12291285 0.22390634 0.15292002 -0.0499418 0.048220392 0.15979503 -0.10321328
00000000: ee86 2cbd 578d 333e 9147 063e 3f88 473d
00000010: ef70 adbd d8ea 1f3d 10d8 df3d 36ce 32bd
00000020: 4d5e 0a3d 7cd1 803d 3cf8 10bc 7206 573d
00000030: d71d 173e e6ff 26bc 448a 8f3c 4e32 33bd
00000040: 64a8 893d b92e 873d fdbe e73d 0cc0 a83d
00000050: 38d7 103d e907 113c 2e7f a2bd 57b1 f83c
00000060: cafa 9d3d fddc fbbc 1de8 c3bc 3a45 c7bb
00000070: 0867 1e3e 51f1 cfbd 0177 e43d 346f 18bd
00000080: bb5d 453d 1736 b93d a0aa 8d3c 8513 8fbd
00000090: debd 12be 18c0 e2bd 11ad 97bd 0c86 853d
000000a0: 7b29 b1bd fb1b 153d f7db 283e 48ec c73c
000000b0: 370b 00bd 829c 23be 908e 6e3d f5fe 33bd
000000c0: a3b1 4a3e 5cf8 b63c 95e4 d2bd 99da 17bd
000000d0: de9d 8cbd adf2 343e f60d d4bd b86f d73d
000000e0: 02cc 783c 7adb e8bd 6926 673c 822e 043e
000000f0: 3287 2f3e d76c dd3d f41a 4abd 973e 313e
00000100: 7780 3e3c 6700 e9bd 1c00 3a3e 4017 09be
00000110: f048 213d 7980 853d 5bd5 00be 6e94 ddbd
00000120: 4465 06bd 4484 e4bc a1f0 73bc 554f 35bd
00000130: bd92 bf3c 3748 053e 1d03 a93d a8bd f33d
00000140: 08d5 06bd 45b7 3bbe 3e91 7bbb 642a ae3d
00000150: 941f b3bd e5d9 4a3e 5067 103d df44 9ebd
00000160: 7307 50bd b281 143e 0df4 0a3e 6745 b23d
00000170: 0e55 e63c efdb d83c 6044 fb3d 6585 ad3d
00000180: 2d70 70bd 5e51 433c 6d8f 883d f3b2 aebd
00000190: 5423 ddbd 6c03 9d3d 42b6 bebd 8fa8 953d
000001a0: cc44 473d 936d b6bd fb38 053d 67b2 8a3c
000001b0: d4a4 0cbc 64f1 45bc bb7b 8b3d 1578 b4bd
000001c0: ff6a 72bd d78f 2fbd 0c3a 9b3d a0b4 e3bd
000001d0: e5ba b4bc e48c 43be e1d5 e0bd a25e 093d
000001e0: 31db f13c cbf3 c7bd 0adf 90bd 3dfb c23d
000001f0: 2d29 c1bd fb2a 13bd a026 093e f210 003e
00000200: 180f da3c 2654 033e f062 15bc d898 56bd
00000210: 7f1b febd 8d23 393e 79d7 273e 8290 243e
00000220: 1746 8e3d 275a 10be 6a11 5abd c20a 17be
00000230: 8d14 983d 5722 fdbd 39be d7bd eea3 afbd
00000240: 31cc 283e 6b5d e23c 51fb 5dbd 8045 143e
00000250: 39d4 6d3d d389 d73d 3bd5 123e 36dd ce3d
00000260: 1eae 453e 0a7a 2dbd ef67 143e 3ea0 e3bd
00000270: 973a 4fbd e80c 0abe f65e 1f3d 0b86 6c3d
00000280: a90b 583c fd20 323e cb81 d9bc 4659 b8bd
00000290: cf9e 8d3d ae24 04be 95f5 f73d d12e b63d
000002a0: 4597 eb3d d8c4 463d 8ac4 193e 871a cabd
000002b0: d4d5 0a3e 2e65 143d 8007 233e 17ba e1bd
000002c0: b491 1fbc 3deb 0dbe 7f0d 39bd ba06 1b3e
000002d0: 01ab f73c a09a 26be 5557 c23d b669 7cbd
000002e0: 4162 d5bd 97aa df3d 7a17 a13d ed97 223e
000002f0: 97cb 0bbc c971 053e 1bd0 ddbc 294b a1bc
00000300: a92e a53d 7064 91bd 455a 403d 34bd e23c
00000310: a7ea 313d 82a2 f2bd 3082 70bc ba99 fdbc
00000320: bca5 95bd e1cd c53d 315a 4e3d b2a9 083d
00000330: e71c 273e ea5e 473d 4f4f bd3c 7cd3 173e
00000340: 7ddf 13be 2bb9 203e 1693 ee3d cd65 b93d
00000350: a072 883d c259 d4bd 32bc f63d bda5 40bd
00000360: 59a4 47bd 0fc3 043e 7e19 ee3c a409 77bd
00000370: 10a7 5c3e 0d06 2c3e 5bf7 e73d afec a13d
00000380: 62ea 763e 0e34 4a3d e3cc b43c 26df 073d
00000390: 23a6 993d c0b6 e73d 7d9f b03c e759 a2bd
000003a0: c0b3 c03c 6049 07bb 3bb6 323e 07c9 d33d
000003b0: 332a 79bc 9374 ea3c 17e8 b4bd 9e42 de3c
000003c0: 51f7 1b3e 3ae7 f73c a578 473e c88e 253e
000003d0: 44f8 eb3d 61a0 033e 512c ba3d 51af 623e
000003e0: 5226 15bc bbb9 fb3d b447 653e 1197 1c3e
000003f0: c68f 4cbd bf82 453d 4fa1 233e 7c61 d3bd

lstm.weight_hh_l0 f4 [136, 34]
0.08067815 0.0066318405 0.04768982 -0.15812097 -0.083450854 0.017240679 -0.21048608 0.1403399
-0.035029966 -0.031996854 -0.0144033255 -0.102267265 0.030994235 0.14298356 0.043418482 0.042202424
-0.027288325 -0.07904208 -0.026107907 0.07385799 -0.08756105 -0.053768836 -0.15670496 -0.03370448
0.087929904 0.09601359 -0.06314374 0.032049842 0.017119832 0.107154295 -0.10556418 0.1300755
-0.08993793 -0.03088051 0.08700354 0.020677539 -0.1999388 0.080791034 -0.09183813 0.16679281
-0.14397284 -0.102726504 -0.14255995 0.04220071 -0.119468175 0.039702438 0.03609045 0.029784111
-0.18151349 -0.024832506 0.11679924 -0.13527277 -0.024274094 0.116340406 0.111311816 0.033006843
0.043801617 0.0548843 0.10017953 0.16071247 -0.040189523 0.014491666 -0.14606695 -0.065790765
-0.0655711 -0.13692404 -0.0682434 -0.16524266 0.1205462 -0.115359664 0.0091598965 0.03321019
-0.070010185 0.22541656 -0.0077850693 -0.042129062 0.09621758 -0.010123808 -0.17199822 -0.09309448
0.094487004 -0.09103964 -0.019516943 -0.04170692 -0.06463925 0.010839412 -0.08081534 0.1185801
0.15690854 -0.06861775 -0.1255564 -0.111258246 0.1955709 0.10874503 0.081187755 0.0469257
-0.00024251518 0.05610658 0.05060307 -0.118971854 0.016651643 -0.02659518 -0.06537812 -0.15559341
0.07287796 -0.09681535 0.13395052 0.19438758 0.09434682 0.15539083 0.11670692 0.050751522
-0.12669156 -0.15537514 -0.07505704 0.075010784 0.01103286 0.11841714 -0.034835465 0.11980851
-0.036586244 0.057099227 0.0488763 0.04028363 0.096193224 0.037773114 0.1493926 -0.087336384
-0.07643563 0.008606917 -0.009095498 -0.021503536 -0.08472942 -0.04677876 0.074471675 0.0532544
-0.08138753 -0.10245407 0.025889091 0.1158262 0.19292516 0.11586619 -0.17298271 0.06143789
0.039192013 -0.033232912 -0.038988266 0.11895126 -0.16264701 0.024496222 0.078154154 -0.041013632
-0.12786096 0.023139222 0.075942926 0.046585664 0.1234672 0.15009983 0.073269896 -0.12277101
-0.043227337 -0.01286376 0.0754733 -0.028578136 -0.0024946013 -0.13398637 0.13676104 0.11537391
0.10686756 -0.14153099 -0.116613574 -0.10708799 0.0956315 -0.007299094 0.0856736 -0.14469336
-0.0608335 -0.040951476 0.15549792 -0.11123165 -0.10237009 -0.14757414 -0.16726406 -0.07925252
-0.18943492 0.13007817 -0.07090818 -0.015697572 -0.118336655 -0.15243909 0.073723204 -0.036479473
0.1601399 -0.14040504 0.0021857445 -0.150587 0.061943054 -0.006780713 -0.11535005 0.03302799
-0.05762036 -0.17126106 0.03227863 -0.10163759 0.13710713 -0.13112918 -0.1729213 -0.018837504
0.014704352 -0.067459464 -0.08035352 0.08406357 0.22723617 -0.04048064 -0.094882324 0.015982024
-0.12948303 -0.10628151 -0.18993169 -0.027940867 0.17530009 0.13164257 0.051653147 -0.03129763
0.0570766 0.13847513 0.11275501 0.094318375 -0.0035444696 0.055737145 -0.11212119 -0.08478089
0.054968555 -0.13782772 -0.08972611 -0.09268466 -0.17451055 -0.0031610362 -0.08141381 -0.12948148
-0.0445536 -0.0046986686 -0.018463131 -0.07800936 0.018475335 0.016505066 0.08816834 0.08095082
0.08761811 0.0749446 0.067730956 -0.09094399 -0.041758366 -0.055242114 -0.094510995 -0.14735575
00000000: 963a a53d e94f d93b 6756 433d 77ea 21be
00000010: 48e8 aabd 533c 8d3c aa89 57be 43b5 0f3e
00000020: 957b 0fbd 220f 03bd edfb 6bbc 8071 d1bd
00000030: 9fe7 fd3c 486a 123e 94d7 313d 73dc 2c3d
00000040: c48b dfbc d0e0 a1bd 40e0 d5bc dc42 973d
00000050: 3553 b3bd b63c 5cbd 4477 20be b50d 0abd
00000060: 9814 b43d c6a2 c43d 8151 81bd b246 033d
00000070: e43e 8c3c b673 db3d 0832 d8bd 8332 053e
00000080: 6131 b8bd 20f9 fcbc e92e b23d f163 a93c
00000090: c2bc 4cbe c575 a53d a115 bcbd bccb 2a3e
000000a0: 9e6d 13be 4662 d2bd 3cfb 11be a7da 2c3d
000000b0: bbab f4bd 069f 223d 94d3 133d cffd f33c
000000c0: acde 39be 8a6d cbbc 7134 ef3d f284 0abe
000000d0: 77da c6bc e143 ee3d 73f7 e33d 2f32 073d
000000e0: 5369 333d 5cce 603d ed2a cd3d cf91 243e
000000f0: c59d 24bd 746e 6d3c 9392 15be 4fbd 86bd
00000100: 244a 86bd d135 0cbe 32c3 8bbd 5f35 29be
00000110: ede0 f63d b041 ecbd 6413 163c 6807 083d
00000120: 8061 8fbd 99d3 663e e519 ffbb 868f 2cbd
00000130: b90d c53d 54de 25bc 4d20 30be 52a8 bebd
00000140: 6782 c13d fe72 babd ffe1 9fbc e0d4 2abd
00000150: 9561 84bd ca97 313c 8382 a5bd 20da f23d
00000160: a2ac 203e 7787 8cbd db91 00be 5ddb e3bd
00000170: bd43 483e b7b5 de3d c445 a63d 2a35 403d
00000180: ac4b 7eb9 03d0 653d 2a45 4f3d 84a7 f3bd
00000190: 0769 883c 23de d9bc f7e4 85bd e153 1fbe
000001a0: 0a41 953d 2047 c6bd 532a 093e 8a0d 473e
000001b0: e838 c13d c61e 1f3e 0a04 ef3d d4e0 4f3d
000001c0: 6fbb 01be a91a 1fbe 81b7 99bd 419f 993d
000001d0: 2bc3 343c af84 f23d a2af 0ebd 2a5e f53d
000001e0: 75db 15bd e1e0 693d 8432 483d 7300 253d
000001f0: f400 c53d fbb7 1a3d 60fa 183e 6bdd b2bd
00000200: 498a 9cbd 0704 0d3c 4905 15bc 2f28 b0bc
00000210: 9e86 adbd 169b 3fbd 9b84 983d 4921 5a3d
00000220: 81ae a6bd 70d3 d1bd 5c15 d43c 4936 ed3d
00000230: 2c8e 453e 414b ed3d 6122 31be 4ca6 7b3d
00000240: ce87 203d 3c1f 08bd 29b2 1fbd b89c f33d
00000250: f08c 26be 4dac c83c 490f a03d e9fd 27bd
00000260: fced 02be 778e bd3c f787 9b3d 9cd0 3e3d
00000270: 5fdc fc3d c5b3 193e 870e 963d 5e6f fbbd
00000280: 260f 31bd 85c2 52bc bf91 9a3d b21c eabc
00000290: 777c 23bb b933 09be 160b 0c3e 2849 ec3d
000002a0: 61dd da3d 80ed 10be 19d3 eebd f350 dbbd
000002b0: 73da c33d 3d2d efbb a475 af3d 7f2a 14be
000002c0: 8c2c 79bd bcbc 27bd d93a 1f3e 6bcd e3bd
000002d0: 69a7 d1bd ad1d 17be 4547 2bbe 254f a2bd
000002e0: 3afb 41be 3633 053e 4f38 91bd 3298 80bc
000002f0: 7d5a f2bd fe18 1cbe 31fc 963d 806b 15bd
00000300: b7fb 233e 57c6 0fbe b53e 0f3b 7b33 1abe
00000310: 00b8 7d3d be30 debb a63c ecbd 5c48 073d
00000320: 5403 6cbd 0f5f 2fbe 9936 043d 5e27 d0bd
00000330: d065 0c3e ba46 06be 4812 31be 1c51 9abc
00000340: 86ea 703c 3028 8abd 6390 a4bd 8529 ac3d
00000350: 99b0 683e 07cf 25bd aa51 c2bd bcec 823c
00000360: 3397 04be 1faa d9bd 747d 42be 3fe4 e4bc
00000370: de81 333e 4fcd 063e 4092 533d f231 00bd
00000380: 27c9 693d 6dcc 0d3e 19ec e63d fe29 c13d
00000390: 554a 68bb a24c 643d cb9f e5bd 9aa1 adbd
000003a0: b526 613d b622 0dbe 53c2 b7bd 74d1 bdbd
000003b0: e5b2 32be 6329 4fbb 49bc a6bd cb96 04be
000003c0: d67d 36bd 4af7 99bb fe3f 97bc 5fc3 9fbd
000003d0: 9659 973c a235 873c 9a91 b43d 8bc9 a53d
000003e0: 2071 b33d 8e7c 993d 87b6 8a3d d840 babd
000003f0: d20a 2bbd 8e45 62bd fb8e c1bd 6de4 16be

lstm.bias_ih_l0 f4 [136]
0.08468288 -0.06742998 0.04481387 0.04856601 -0.09654159 0.15169407 0.103858516 0.10189999
0.026566215 0.14375244 -0.101184405 0.015586668 -0.0013221102 0.0056205513 0.0422919 -0.08997211
-0.048682433 -0.048191696 0.032695394 -0.11321164 0.028318647 -0.13131934 0.022312576 -0.043046176
-0.030064968 -0.11377639 -0.016098019 0.027661225 0.14467774 0.081095785 -0.08310313 0.06474891
0.06511918 -0.1380406 0.08487871 -0.05269473 -0.019790856 -0.032937635 -0.044799738 -0.0356562
0.20111126 -0.08490213 0.0024718347 -0.0248416 0.040695544 -0.14998893 0.10377862 -0.08126558
0.17255716 0.096667565 0.094116636 -0.085633285 0.016755285 -0.032857105 -0.049735226 0.15095827
-0.041505385 -0.013224949 -0.04747199 0.11961294 0.028904812 -0.12591048 -0.024225099 -0.04408894
-0.061995868 0.117716834 -0.037311543 0.083777785 0.055055074 0.050184526 -0.114408515 -0.100586236
0.108068295 -0.014839074 -0.06908165 -0.05816416 0.079391904 -0.010730035 0.03405331 -0.11871874
-0.15630773 -0.13465808 -0.031587712 0.07679896 -0.07679312 0.17463796 0.008091303 0.14260527
-0.03151164 0.01774005 0.03480173 -0.018076109 0.13883427 0.14087695 -0.03638543 -0.115912616
-0.17577662 0.065897726 -0.08808251 -0.13554767 -0.06608595 -0.0562262 0.025180344 0.12078428
0.051456794 -0.01388608 0.1175383 0.036296632 0.21680774 0.16528536 0.028782103 -0.10863107
0.121319346 0.06028154 0.0981347 0.03218399 0.26682624 0.042121116 -0.050695352 0.15382816
-0.095815 0.12408815 -0.04913709 0.15716356 -0.0868751 0.08863962 0.09878744 0.14065193
-0.11665013 0.14055982 0.09405156 -0.16188523 -0.013133053 0.12718591 -0.14974558 0.02546268
00000000: 386e ad3d bb18 8abd c08e 373d 27ed 463d
00000010: 99b7 c5bd b155 1b3e c6b3 d43d f1b0 d03d
00000020: 64a1 d93c d733 133e c539 cfbd 395f 7f3c
00000030: a84a adba 9a2c b83b 453a 2d3d 4c43 b8bd
00000040: 3b67 47bd a864 45bd 9beb 053d 81db e7bd
00000050: 82fc e73c 9478 06be ddc8 b63c 3051 30bd
00000060: cf4a f6bc 9903 e9bd fedf 83bc cb99 e23c
00000070: 6726 143e 8c15 a63d f931 aabd 149b 843d
00000080: 345d 853d 845a 0dbe e4d4 ad3d 6ed6 57bd
00000090: 6f20 a2bc 9de9 06bd ee7f 37bd 3c0c 12bd
000000a0: 1cf0 4d3e 2be1 adbd 81fe 213b 9c80 cbbc
000000b0: 5fb0 263d b396 19be e389 d43d 926e a6bd
000000c0: d3b2 303e a5f9 c53d 39c0 c03d 8160 afbd
000000d0: 6142 893c 2c95 06bd 2ab7 4bbd ce94 1a3e
000000e0: 8d01 2abd 75ad 58bc fd71 42bd a1f7 f43d
000000f0: c9c9 ec3c adee 00be b773 c6bc 9b96 34bd
00000100: 61ef 7dbd 8615 f13d fdd3 18bd b093 ab3d
00000110: 6e81 613d 4a8e 4d3d 034f eabd 2800 cebd
00000120: e952 dd3d 961f 73bc ae7a 8dbd 8b3d 6ebd
00000130: 3998 a23d 07cd 2fbc 7c7b 0b3d d022 f3bd
00000140: 220f 20be cfe3 09be 1e62 01bd c648 9d3d
00000150: b645 9dbd 4bd4 323e 6291 043c 1e07 123e
00000160: 5912 01bd 9553 913c 428c 0e3d 5914 94bc
00000170: 922a 0e3e 0c42 103e e308 15bd 9863 edbd
00000180: c9fe 33be 63f5 863d 9a64 b4bd 02cd 0abe
00000190: 1258 87bd 724d 66bd 0247 ce3c c05d f73d
000001a0: 5cc4 523d 7182 63bc ecb7 f03d c7ab 143d
000001b0: d902 5e3e 9140 293e 72c8 eb3c f779 debd
000001c0: 4776 f83d c7e9 763d d8fa c83d 5cd3 033d
000001d0: 739d 883e 3187 2c3d eea5 4fbd 2185 1d3e
000001e0: a83a c4bd ee21 fe3d f943 49bd 7cef 203e
000001f0: 93eb b1bd b088 b53d 1251 ca3d 0f07 103e
00000200: 43e6 eebd eaee 0f3e 1b9e c03d 3ec5 25be
00000210: 042c 57bc 063d 023e e856 19be 1c97 d03c

lstm.bias_hh_l0 f4 [136]
-0.13046631 0.009471638 0.11182909 -0.028685205 0.069822274 0.034748994 0.15311086 0.002361821
-0.07098641 -0.026523063 0.16442735 -0.024827784 0.21947944 -0.14886309 0.11401785 0.11605565
-0.093666255 -0.02772982 0.10627829 -0.052633815 -0.0028319792 0.095455244 0.15557012 0.13571781
0.13505505 -0.0791012 -0.017036177 0.12685937 0.123914145 -0.050444912 -0.09298857 -0.13322406
0.1417722 0.03583495 0.16073745 -0.09380377 -0.008242345 -0.12121395 0.107016616 0.15406977
0.1092892 -0.10345246 0.080077216 0.1179603 -0.10237894 0.059772436 0.073978074 -0.10475949
0.11479174 0.06282127 0.01949502 0.12811476 -0.08940908 0.1451827 -0.0897291 -0.0946513
0.14912093 -0.062418915 -0.0315212 0.12349611 0.13139622 0.07405489 0.06595445 -0.016236283
-0.0025689886 0.07114017 0.01568647 0.1512547 0.011169389 0.022512 0.0637682 -0.11330905
-0.087242894 0.1340347 -0.07918713 0.09113026 -0.0019952776 -0.0517503 -0.015416227 -0.10747824
-0.09295717 -0.11179325 -0.11374958 0.14517531 0.13505381 0.0970096 0.123376675 -0.07031287
0.11081011 0.010868766 0.14188975 0.053376812 0.0075099026 0.14670078 0.043121967 0.012305269
0.030791916 -0.118802615 -0.13250959 0.10752533 -0.018608477 -0.015327746 0.15258065 0.092703015
0.18457106 0.18315424 0.055395506 0.13226861 -0.058136318 0.11949697 0.0019085032 0.05916519
0.054925002 0.07544064 0.110567585 -0.036642913 0.042499036 0.1278147 0.12218778 0.17522664
0.19782831 0.017303977 0.017938964 0.17355236 0.00081984553 -0.13015202 0.12635785 -0.13322863
0.03185216 0.19574535 0.18114085 0.15083143 0.018883767 0.05146994 -0.026641993 -0.06822633
00000000: f698 05be ee2e 1b3c a606 e53d 3cfd eabc
00000010: fbfe 8e3d f654 0e3d 18c9 1c3e c8c8 1a3b
00000020: 5361 91bd e546 d9bc a55f 283e a363 cbbc
00000030: 38bf 603e 916f 18be 3182 e93d 96ae ed3d
00000040: 18d4 bfbd a629 e3bc 6fa8 d93d 8e96 57bd
00000050: ba98 39bb 0a7e c33d c64d 1f3e 9cf9 0a3e
00000060: df4b 0a3e cfff a1bd 748f 8bbc 6ce7 013e
00000070: b3c6 fd3d 539f 4ebd cb70 bebd e36b 08be
00000080: bb2c 113e abc7 123d 5c98 243e 311c c0bd
00000090: e70a 07bc 053f f8bd 872b db3d 77c4 1d3e
000000a0: 04d3 df3d e2de d3bd 86ff a33d 2b95 f13d
000000b0: 0dac d1bd f1d3 743d d181 973d 258c d6bd
000000c0: ef17 eb3d 70a8 803d 05b4 9f3c 8430 033e
000000d0: 1c1c b7bd c6aa 143e e4c3 b7bd 8ad8 c1bd
000000e0: 28b3 183e faaa 7fbd 601c 01bd 87eb fc3d
000000f0: bb8c 063e 17aa 973d 2013 873d f401 85bc
00000100: 7a5c 28bb f0b1 913d e980 803c 83e2 1a3e
00000110: d0ff 363c 166b b83c e798 823d 930e e8bd
00000120: 67ac b2bd 6440 093e dd2c a2bd 80a2 ba3d
00000130: 34c3 02bb 1ff8 53bd 5894 7cbc 8d1d dcbd
00000140: 5460 bebd dcf3 e4bd 8af5 e8bd d6a8 143e
00000150: 8c4b 0a3e f8ac c63d e9ac fc3d 3200 90bd
00000160: 69f0 e23d e912 323c 8c4b 113e a5a1 5a3d
00000170: a115 f63b bb38 163e a9a0 303d 0a9c 493c
00000180: 543f fc3c c94e f3bd 98b0 07be 3d36 dc3d
00000190: ce70 98bc 3a21 7bbc 1a3e 1c3e 14db bd3d
000001a0: 3200 3d3e c98c 3b3e 66e6 623d 6c71 073e
000001b0: 5920 6ebd d4ba f43d be26 fa3a 3357 723d
000001c0: 0af9 603d 9f80 9a3d 4271 e23d e116 16bd
000001d0: 7813 2e3d dbe1 023e 963d fa3d 9d6e 333e
000001e0: 8193 4a3e 12c1 8d3c bcf4 923c b6b7 313e
000001f0: e7ea 563a 9246 05be f463 013e 166d 08be
00000200: 6977 023d 7871 483e fd7c 393e 8e73 1a3e
00000210: 21b2 9a3c 25d2 523d 4f40 dabc 3fba 8bbd

lstm.weight_ih_l1 f4 [136, 34]
0.19624913 0.05761111 -0.08117843 -0.20672376 -0.105778135 0.02136594 -0.088866286 0.12660143
0.12996067 -0.068953596 0.04413847 -0.0050157392 0.21393466 -0.23984939 0.17930377 -0.2615162
-0.059766255 0.030091666 0.18882348 -0.05796332 0.093737885 -0.012957847 -0.04240012 0.060020078
0.17635417 0.1935855 -0.13180505 -0.08193898 -0.115898386 0.014561009 0.039999686 -0.11647949
0.04544538 -0.044746857 0.16567951 -0.15105996 0.11206941 -0.060944185 0.10137382 0.017203374
0.11088052 0.026501544 0.079821154 -0.13871272 -0.20506698 0.041350085 0.13250704 -0.044909384
-0.12459466 0.020843662 0.007827531 0.03306695 0.23971607 -0.071913175 -0.030303633 0.14063413
0.21538964 -0.1388677 0.004444621 0.032143936 -0.036260817 -0.25521722 -0.15254124 -0.0992121
-0.17477977 -0.059309773 -0.051428203 -0.011565849 -0.10657389 -0.0056256517 0.16345641 0.022374352
-0.12093959 0.08422219 -0.04128146 -0.13485189 0.044815455 -0.0665376 -0.18554442 -0.16828091
-0.024413256 0.14090809 -0.21775594 0.028962946 -0.15987755 0.06615666 0.008752423 -0.07988299
0.095998466 -0.08115548 0.00695324 0.093511514 -0.0062422636 -0.08616462 -0.18323193 -0.015366512
0.051978108 -0.19674346 -0.08588438 -0.19288145 0.085313976 -0.09471622 0.015638825 -0.1639501
0.029015204 0.023695353 -0.049603432 -0.08718308 0.096546836 0.033950046 0.12530188 -0.15717581
-0.0045996164 -0.24431077 -0.057677414 0.042893264 0.1376862 -0.15604995 0.16100824 0.21566051
0.020181008 0.10112436 0.15499689 0.09655889 0.12076523 0.037269976 0.1784922 0.1910207
-0.07391465 -0.21332005 0.015213334 -0.06587963 -0.011518484 0.0010282239 0.022882063 -0.05873344
-0.019339906 0.10906747 0.09536617 -0.055116087 0.114527084 0.10978545 0.09588049 0.0017141907
0.10164433 -0.042307574 0.111279376 0.053324454 -0.18580371 -0.13823968 -0.13143311 -0.18775198
0.110042475 0.10731371 -0.047109768 0.026166292 0.00017218167 -0.07003322 0.2041656 -0.2187551
0.13060296 0.18038158 0.0939892 -0.10289932 -0.14178632 0.06835836 0.09858191 -0.11504054
0.0031336888 -0.07612572 0.17615972 -0.10353935 -0.09300618 0.092591986 0.1065809 0.045769803
-0.26032764 -0.0933979 0.07988321 0.0171082 -0.19185723 -0.09702179 0.060804203 0.004472124
0.164442 0.08439875 0.22115704 0.22605841 0.013668126 -0.0768421 0.031540845 0.0066964957
-0.062483072 -0.032335233 0.22455424 0.0240877 0.1314912 0.1438852 -0.0071602254 -0.22121309
0.0512557 -0.2319556 -0.16409117 -0.04795543 0.0508691 0.15454899 0.009997275 0.12050863
-0.107722595 -0.16759285 0.047237933 -0.00017827381 0.06698059 0.026833277 0.045629438 0.112755924
-0.036755875 -0.12827757 -0.078430116 0.0942971 -0.017710308 -0.1258371 -0.098049015 0.0631284
-0.045558568 -0.1342168 0.09638004 -0.091050826 0.15520634 -0.006006459 0.11988794 -0.12580788
-0.07088244 0.05799888 -0.060476102 0.033955 -0.044589773 -0.07205822 0.08337358 -0.11995008
-0.06793138 0.08895649 0.13530621 0.05000865 0.009962925 -0.06467859 -0.097229585 -0.05309437
0.061252784 -0.03134219 -0.089822985 -0.1396774 0.09315911 -0.025360728 -0.046648894 0.120735794
00000000: 88f5 483e a1f9 6b3d e040 a6bd 65af 53be
00000010: 35a2 d8bd a007 af3c 87ff b5bd cea3 013e
00000020: 6914 053e 8b37 8dbd 8aca 343d 125b a4bb
00000030: b011 5b3e 149b 75be 689b 373e 74e5 85be
00000040: 76cd 74bd cc82 f63c f15a 413e f26a 6dbd
00000050: a6f9 bf3d 264d 54bc c0ab 2dbd 9dd7 753d
00000060: 3096 343e 473b 463e e7f7 06be a0cf a7bd
00000070: 225c edbd 4c91 6e3c b6d6 233d cd8c eebd
00000080: ef24 3a3d 7b48 37bd e4a7 293e 76af 1abe
00000090: a684 e53d 9ca0 79bd 149d cf3d 17ee 8c3c
000000a0: 5315 e33d c419 d93c 4679 a33d b50a 0ebe
000000b0: 14fd 51be b55e 293d edaf 073e e7f2 37bd
000000c0: 7c2b ffbd 54c0 aa3c 0b3f 003c 3671 073d
000000d0: 2178 753e 3747 93bd 533f f8bc 6502 103e
000000e0: 1a8f 5c3e 5633 0ebe 2fa4 913b 5ca9 033d
000000f0: 3986 14bd d5ab 82be c533 1cbe b72f cbbd
00000100: 78f9 32be ceee 72bd 61a6 52bd b07e 3dbc
00000110: 6943 dabd 6357 b8bb 1e61 273e 6b4a b73c
00000120: 2daf f7bd af7c ac3d c016 29bd 9d16 0abe
00000130: 6990 373d dd44 88bd 5bff 3dbe d551 2cbe
00000140: 4ffe c7bc 364a 103e 6afb 5ebe b343 ed3c
00000150: f1b6 23be 257d 873d 5366 0f3c b199 a3bd
00000160: d89a c43d d834 a6bd 01d8 e33b f782 bf3d
00000170: e78b ccbb 1477 b0bd 27a1 3bbe d3c3 7bbc
00000180: ffe6 543d 1e77 49be 26e4 afbd b782 45be
00000190: 18b9 ae3d 94fa c1bd fe1c 803c 89e2 27be
000001a0: 4bb1 ed3c c21c c23c f82c 4bbd 0b8d b2bd
000001b0: 59ba c53d 340f 0b3d 234f 003e b2f2 20be
000001c0: 61b8 96bb 9a2c 7abe 273f 6cbd d9b0 2f3d
000001d0: 9cfd 0c3e 8fcb 1fbe 58df 243e 1cd6 5c3e
000001e0: a452 a53c 4a1a cf3d 81b7 1e3e abc0 c53d
000001f0: c353 f73d 67a8 183d a9c6 363e ee9a 433e
00000200: 9060 97bd 9270 5abe 5941 793c e6eb 86bd
00000210: 06b8 3cbc 78c5 863a 2a73 bb3c 7a92 70bd
00000220: b96e 9ebc c45e df3d 574f c33d 68c1 61bd
00000230: 2d8d ea3d 32d7 e03d fe5c c43d b2ae e03a
00000240: e72a d03d b54a 2dbd 71e6 e33d be6a 5a3d
00000250: 5443 3ebe b48e 0dbe 6796 06be 0e42 40be
00000260: f35d e13d 4ac7 db3d 2cf6 40bd b15a d63c
00000270: aa8b 3439 946d 8fbd c910 513e 5601 60be
00000280: c8bc 053e f3b5 383e 697d c03d e1bc d2bd
00000290: 6f30 11be 78ff 8b3d 50e5 c93d 609a ebbd
000002a0: 935e 4d3b cde7 9bbd 3763 343e 700c d4bd
000002b0: 067a bebd dea0 bd3d 1647 da3d 1e79 3b3d
000002c0: aa49 85be 6647 bfbd cf99 a33d 7f26 8c3c
000002d0: 3976 44be 5cb3 c6bd d40d 793d e58a 923b
000002e0: 7c63 283e 40d9 ac3d fe76 623e db7b 673e
000002f0: 47f0 5f3c 645f 9dbd f930 013d 476e db3b
00000300: 40ee 7fbd f371 04bd 8cf1 653e 9153 c53c
00000310: a1a5 063e a456 133e 53a0 eabb af85 62be
00000320: 7ff1 513d c585 6dbe 8407 28be ea6c 44bd
00000330: 1e5c 503d 1742 1e3e 9ccb 233c 3bcd f63d
00000340: aa9d dcbd 769d 2bbe 907c 413d 03ef 3ab9
00000350: 1f2d 893d 76d1 db3c efe5 3a3d 94ec e63d
00000360: 548d 16bd 325b 03be f89f a0bd d71e c13d
00000370: 3515 91bc 71db 00be eccd c8bd 7649 813d
00000380: 9f9b 3abd 2170 09be e662 c53d db78 babd
00000390: 69ee 1e3e d4d1 c4bb cf87 f53d c8d3 00be
000003a0: d02a 91bd 3c90 6d3d cab5 77bd 6614 0b3d
000003b0: c4a3 36bd 4393 93bd c4bf aa3d 63a8 f5bd
000003c0: 9b1f 8bbd d22e b63d b68d 0a3e dfd5 4c3d
000003d0: 893b 233c 3576 84bd 4e20 c7bd 7b79 59bd
000003e0: 33e4 7a3d ab60 00bd 1df5 b7bd 9807 0fbe
000003f0: 34ca be3d 4dc1 cfbc e912 3fbd 5444 f73d

lstm.weight_hh_l1 f4 [136, 34]
0.1757397 0.06887847 -0.016787726 -0.042933997 -0.07418222 -0.19579951 -0.026512971 -0.16745628
0.18625796 0.16837987 0.059997614 0.04544712 0.13718075 0.0091753565 0.14882214 0.21040328
-0.028234463 -0.012824178 0.09829396 -0.082092315 0.15225445 0.050611515 -0.20865898 -0.09935128
0.017385537 -0.07535596 0.18634625 -0.049104188 -0.19402236 0.17982951 0.15372922 0.21348742
-0.06956891 0.12484374 -0.00891044 0.1003839 0.05065063 -0.019605005 -0.040291186 -0.1284467
0.13778962 0.0128501635 0.23351724 0.08228472 0.15463376 0.093797 0.041430935 -0.12542246
0.016917476 -0.059892926 -0.010267748 -0.008066702 -0.07139488 0.015822625 -0.09087355 0.1468625
0.054357685 -0.23474914 0.07544983 -0.10499576 0.22291288 0.020000909 -0.08826451 -0.06980332
0.19690008 0.07521838 0.03272953 0.17454048 0.009526426 0.13141747 -0.017815266 -0.042642713
0.041233238 0.09028947 -0.0765089 -0.10676323 0.2189921 -0.09219797 0.07217829 0.08648689
0.1468467 0.1359639 0.08455932 0.14351991 0.16768321 -0.16092305 -0.08927598 -0.01972735
0.0030260005 0.0706923 -0.11196598 0.025325999 0.0029721926 0.031541865 0.16549318 -0.15522434
0.008719903 -0.025377566 0.07655606 -0.08578943 -0.08110146 -0.13707337 0.14864409 0.20903501
0.14057525 0.08367134 0.071995825 0.04131998 0.025350472 -0.051148217 -0.076980196 -0.038584244
0.045790084 -0.054418046 0.16175474 -0.090671524 0.033983734 0.04354018 0.12194839 -0.15635248
0.03278969 0.050437085 -0.006873702 0.2109738 -0.1924113 -0.07879939 0.21110153 -0.0423893
0.14519179 -0.14423475 0.04783679 0.018195983 -0.090889424 0.08574052 -0.09135291 0.1144016
-0.077441335 -0.10518465 0.07739162 -0.023573652 0.15770979 0.011693815 0.0011605779 0.09480323
0.04288899 0.055470046 -0.055214126 -0.051749863 0.15629001 0.097852655 0.20383458 0.11544779
0.106969774 -0.09082151 -0.11611206 0.1252034 -0.15341765 0.110255525 -0.100072965 0.021840792
0.065525785 0.017761141 0.0019001173 -0.0022994434 -0.1605495 -0.11994689 0.050426703 0.16849972
-0.079769626 0.11732856 0.036312345 -0.014608133 -0.07224612 0.107757375 0.11587721 -0.024475412
-0.09263545 0.00048115148 0.13121997 0.08517455 0.14238915 -0.20815928 0.13853702 -0.11294275
0.013387185 -0.038219254 0.11384733 -0.20977336 0.06548768 -0.01989883 -0.012768234 -0.022958662
0.03260155 0.010893127 0.17643362 -0.028303448 -0.061209545 0.09169395 0.039983317 0.19128248
0.019390728 0.20115612 -0.06879467 -0.13368577 0.13211519 0.06876606 0.1661673 -0.07323394
-0.13691783 0.020512199 -0.002234204 -0.12529573 0.049729116 -0.08215132 -0.12924017 0.09445744
0.09171045 0.15046313 -0.006984145 0.19230518 -0.053010594 -0.08281927 0.07061572 0.013940837
-0.079056166 -0.08726625 -0.06263807 0.01359907 0.026623283 -0.0754281 0.105289206 -0.17001471
-0.010398967 -0.012998272 -0.1366513 0.17930663 -0.10890896 -0.048666008 -0.027126607 0.037723362
-0.06355846 0.119749166 0.02645264 -0.021436961 0.19194606 -0.14537507 -0.07705161 0.08521948
-0.09753488 -0.17393072 -0.0048727132 0.025909163 0.16954963 0.13099962 -0.011429356 -0.013539015
00000000: 1cf5 333e 2810 8d3d 6a86 89bc 8fdb 2fbd
00000010: d9ec 97bd ab7f 48be bb31 d9bc a979 2bbe
00000020: 68ba 3e3e c66b 2c3e 0fc0 753d c226 3a3d
00000030: 1c79 0c3e 3c54 163c d564 183e f573 573e
00000040: f64b e7bc 801c 52bc 584e c93d 0420 a8bd
00000050: 97e8 1b3e 054e 4f3d b3aa 55be af78 cbbd
00000060: 1d6c 8e3c 3a54 9abd 8dd1 3e3e 7921 49bd
00000070: ccad 46be 3a25 383e 316b 1d3e 729c 5a3e
00000080: 257a 8ebd 13ae ff3d 18fd 11bc 1396 cd3d
00000090: 0977 4f3d ad9a a0bc 5f08 25bd 8887 03be
000000a0: b918 0d3e 7e89 523c 251f 6f3e e484 a83d
000000b0: 5058 1e3e a418 c03d 7cb3 293d bf6e 00be
000000c0: 8596 8a3c 4952 75bd 0e3a 28bc 332a 04bc
000000d0: 7b37 92bd 739e 813c e91b babd 2063 163e
000000e0: 2aa6 5e3d 1462 70be 7185 9a3d 0408 d7bd
000000f0: 4643 643e f2d8 a33c 06c4 b4bd 0bf5 8ebd
00000100: 2da0 493e 180c 9a3d 660f 063d bdba 323e
00000110: ba14 1c3c 4d92 063e 52f1 91bc 20aa 2ebd
00000120: 2fe4 283d b0e9 b83d b3b0 9cbd aea6 dabd
00000130: 773f 603e 4ad2 bcbd 36d2 933d 0a20 b13d
00000140: fb5e 163e 1f3a 0b3e 702d ad3d e2f6 123e
00000150: 26b5 2b3e 03c9 24be 53d6 b6bd 409b a1bc
00000160: dd4f 463b 20c7 903d 6b4e e5bd 7878 cf3c
00000170: 1ec9 423b 0b32 013d 0b77 293e 21f3 1ebe
00000180: eddd 0e3c 9de4 cfbc 6cc9 9c3d 5eb2 afbd
00000190: 8618 a6bd f65c 0cbe 2836 183e 460d 563e
000001a0: f5f2 0f3e e15b ab3d 8c72 933d 243f 293d
000001b0: cbab cf3c cb80 51bd cba7 9dbd 830a 1ebd
000001c0: 628e 3b3d 75e5 5ebd 09a3 253e feb1 b9bd
000001d0: 8732 0b3d 3057 323d 14c0 f93d dd1a 20be
000001e0: 7b4e 063d 1e97 4e3d cb3c e1bb 8409 583e
000001f0: 7807 45be 9361 a1bd 002b 583e 67a0 2dbd
00000200: 28ad 143e 46b2 13be 83f0 433d be0f 953c
00000210: 3c24 babd ba98 af3d 3c17 bbbd 634b ea3d
00000220: 9099 9ebd 0d6b d7bd 7f7f 9e3d 881d c1bc
00000230: ad7e 213e 6a97 3f3c 881e 983a 3228 c23d
00000240: 5eac 2f3d 8f34 633d 3528 62bd aaf7 53bd
00000250: 7d0a 203e f966 c83d 03ba 503e e46f ec3d
00000260: f812 db3d a100 babd 29cc edbd 5235 003e
00000270: 8419 1dbe a6cd e13d 0ef3 ccbd 76eb b23c
00000280: 6232 863d d07f 913c 5b0d f93a 42b2 16bb
00000290: 1767 24be b7a6 f5bd 3b8c 4e3d 318b 2c3e
000002a0: 425e a3bd f549 f03d 41bc 143d f356 6fbc
000002b0: c6f5 93bd e6af dc3d 0851 ed3d a980 c8bc
000002c0: a8b7 bdbd 0f43 fc39 875e 063e ff6f ae3d
000002d0: 76ce 113e b527 55be a6dc 0d3e 874e e7bd
000002e0: ec55 5b3c cb8b 1cbd ca28 e93d d4ce 56be
000002f0: 681e 863d df02 a3bc db31 51bc ce13 bcbc
00000300: 3489 053d 1679 323c 04ab 343e a2dc e7bc
00000310: dcb6 7abd 0aca bb3d 8cc5 233d 8edf 433e
00000320: 4ed9 9e3c dffb 4d3e 38e4 8cbd ece4 08be
00000330: 3449 073e 38d5 8c3d c327 2a3e adfb 95bd
00000340: 3034 0cbe 3309 a83c b96b 12bb 864d 00be
00000350: c2b0 4b3d f43e a8bd 8957 04be e772 c13d
00000360: b0d2 bb3d 0213 1a3e 41db e4bb a6eb 443e
00000370: a321 59bd 269d a9bd f99e 903d 1c68 643c
00000380: 33e8 a1bd a6b8 b2bd 6348 80bd a2ce 5e3c
00000390: 1219 da3c 0c7a 9abd dea1 d73d 5618 2ebe
000003a0: 6e60 2abc b4f6 54bc 52ee 0bbe 289c 373e
000003b0: a90b dfbd 0256 47bd 9e38 debc d083 1a3d
000003c0: f02a 82bd 0d3f f53d 35b3 d83c 919c afbc
000003d0: 828d 443e 34dd 14be 3ccd 9dbd 8d87 ae3d
000003e0: 5ec0 c7bd e51a 32be 48ab 9fbb 743f d43c
000003f0: 6b9e 2d3e c424 063e 3242 3bbc bfd2 5dbc

lstm.bias_ih_l1 f4 [136]
0.1655774 0.15894309 0.16551834 0.23460431 0.11764481 0.18073782 0.058000572 0.11318247
0.10085986 -0.043612223 -0.05788285 -0.066622734 0.18442596 -0.016032167 0.009860722 -0.13785762
-0.08228996 -0.08302399 0.12329779 -0.09654344 0.10371624 -0.018564135 -0.1318586 0.0450531
-0.11296736 -0.08252881 -0.09692482 -0.108582385 0.06633917 0.05936283 -0.059630252 -0.032178424
0.069927834 0.16490996 0.17840368 -0.09379331 -0.06794525 0.17814559 -0.07881096 -0.03954021
0.092938155 0.07904521 0.0020378227 0.2373635 0.0654095 0.12875496 0.16088475 0.16530664
-0.095675424 -0.10714499 0.05946236 -0.13936739 0.15513146 -0.08589814 0.05048965 0.06318341
0.16421781 0.05193703 -0.01242007 0.080381915 4.7714115e-05 0.036556575 0.16620189 0.07133974
0.016151093 -0.035562366 0.16004284 0.0889174 0.13392256 -0.06487652 -0.09252336 -0.15803753
0.102080196 -0.041839126 0.13649799 -0.13280432 0.13199939 0.038724236 0.056084137 -0.010612523
0.16416337 0.10102938 0.1658015 0.11590254 -0.029497495 -0.07542685 0.0741477 0.112231754
-0.12006854 -0.09087954 0.15856801 -0.11934922 0.14491183 -0.15794675 0.058434997 -0.02180577
-0.13011684 0.12897287 0.026408955 0.1327879 -0.04497729 0.011580282 -0.011013588 -0.08649924
0.104999594 0.09996655 0.057723023 0.17354721 0.019594667 0.00024909253 -0.0812073 0.23103176
-0.08362924 0.01865591 -0.03896243 0.19861287 -0.07848626 -0.109421894 0.099822745 -0.016117865
-0.10743731 -0.095167525 0.13281232 -0.09235082 0.077837445 -0.02491765 0.04511053 0.15277353
0.12774837 -0.015677622 -0.14314663 -0.044371158 -0.014746746 -0.03593883 0.030239858 -0.04137819
00000000: 1f8d 293e fac1 223e a47d 293e 1d3c 703e
00000010: c3ef f03d 5613 393e 0292 6d3d 36cc e73d
00000020: 9d8f ce3d bba2 32bd 9116 6dbd 8071 88bd
00000030: 29da 3c3e e455 83bc de8e 213c 8c2a 0dbe
00000040: a387 a8bd 7b08 aabd 8d83 fc3d 91b8 c5bd
00000050: 2e69 d43d d013 98bc f105 07be 9989 383d
00000060: 6e5b e7bd dd04 a9bd 8580 c6bd 7160 debd
00000070: d5dc 873d 7026 733d da3e 74bd 86cd 03bd
00000080: 5336 8f3d 28de 283e 74af 363e b516 c0bd
00000090: e126 8bbd cc6b 363e a467 a1bd eaf4 21bd
000000a0: 5c56 be3d 74e2 a13d fe8c 053b 6b0f 733e
000000b0: 6af5 853d 57d8 033e f9be 243e 2546 293e
000000c0: 7af1 c3bd d56e dbbd ce8e 733d 53b6 0ebe
000000d0: c8da 1e3e 5deb afbd 3cce 4e3d 4e66 813d
000000e0: b728 283e ecbb 543d 8d7d 4bbc 469f a43d
000000f0: a420 4838 59bc 153d d430 2a3e 921a 923d
00000100: 4c4f 843c d8a9 11bd 45e2 233e 531a b63d
00000110: ff22 093e fbdd 84bd e37c bdbd 97d4 21be
00000120: 6c0f d13d 815f 2bbd 21c6 0b3e dbfd 07be
00000130: d92a 073e 4e9d 1e3d 7bb8 653d 26e0 2dbc
00000140: 711a 283e 7ee8 ce3d dec7 293e 505e ed3d
00000150: bba4 f1bc 6479 9abd c0da 973d c3d9 e53d
00000160: 7fe6 f5bd 0d1f babd a75f 223e 5d6d f4bd
00000170: c463 143e cbbc 21be 8959 6f3d 04a2 b2bc
00000180: 593d 05be 7711 043e 9857 d83c 8df9 073e
00000190: 1b3a 38bd 39bb 3d3c 5672 34bc 8326 b1bd
000001a0: 070a d73d 43bb cc3d fa6e 6c3d 5cb6 313e
000001b0: ff84 a03c a298 8239 0350 a6bd 9793 6c3e
000001c0: cf45 abbd 47d4 983c 1297 1fbd 2c61 4b3e
000001d0: 67bd a0bd 9618 e0bd de6f cc3d 9d09 84bc
000001e0: 1808 dcbd 31e7 c2bd f4ff 073e 6d22 bdbd
000001f0: 3d69 9f3d 1920 ccbc d2c5 383d aa70 1c3e
00000200: 78d0 023e 5b6e 80bc 0895 12be 88be 35bd
00000210: 569c 71bc 9834 13bd 94b9 f73c 2d7c 29bd

lstm.bias_hh_l1 f4 [136]
0.110150434 0.066390075 0.03350874 0.22190969 0.13265486 -0.06419289 -0.08462244 -0.114923604
0.1514345 0.023958046 0.18661623 0.21492507 -0.036954653 0.095221415 -0.026445376 -0.08901998
-0.089937344 -0.070763126 -0.10927015 0.13236879 -0.07621444 0.20228115 0.18038242 0.120446056
0.1436574 0.100348204 -0.101578034 -0.07389482 0.17978433 0.20471103 0.23527706 0.17325945
-0.036066774 0.123719685 0.1981028 0.04130273 -0.06419368 0.093787275 0.0041982317 -0.10252143
0.037125718 0.16736147 0.16545103 0.16433086 0.12359808 -0.042439647 -0.0854946 -0.024673508
0.022094427 -0.13890088 -0.004493214 -0.14306639 0.0464089 0.17528461 0.07994671 -0.12737325
0.16590624 0.11567655 -0.07807986 -0.06935689 0.0028294632 0.15057953 -0.05674622 -0.070541315
0.13883516 -0.10802401 -0.07479923 0.021864671 -0.14821328 0.100266136 0.16538796 0.12488297
-0.046911202 -0.15520915 -0.07288395 -0.014194786 -0.13126999 -0.06532203 0.0163428 0.04112265
0.08523892 -0.032033965 0.14764749 0.11394564 -0.020602545 -0.06518089 0.0822222 0.0503078
0.12689479 0.15194021 -0.053857002 -0.11884561 0.11920012 0.0042810747 0.05616658 -0.16232817
-0.0050363336 -0.07008927 0.03504673 0.16741334 -0.16688688 0.072722614 0.082934424 0.01820624
-0.1363649 0.060774695 -0.1058274 0.14643364 0.117006935 -0.110311076 -0.039385244 0.0059236884
-0.13604495 0.19278765 0.07881858 0.038668435 0.053946488 0.113480605 -0.11205207 -0.14477049
0.016006302 0.08635915 0.02274178 0.03596371 -0.072773136 0.07986762 0.12983415 0.12919511
0.1086055 0.20436692 -0.10061645 0.21377711 0.15441538 0.008069905 -0.05885253 0.007720069
00000000: 8d96 e13d 85f7 873d 7640 093d 4b3c 633e
00000010: add6 073e 9077 83bd 884e adbd 115d ebbd
00000020: a511 1b3e aa43 c43c 5318 3f3e 5115 5c3e
00000030: c35d 17bd 7203 c33d f9a3 d8bc 1b50 b6bd
00000040: 1231 b8bd 42ec 90bd 07c9 dfbd af8b 073e
00000050: 5116 9cbd ca22 4f3e 2bb6 383e 6cac f63d
00000060: ed1a 133e 5c83 cd3d 2508 d0bd 2b56 97bd
00000070: 6219 383e c59f 513e 78ec 703e ed6a 313e
00000080: c1ba 13bd bf60 fd3d 76db 4a3e 0d2d 293d
00000090: fa77 83bd 8b13 c03d 5291 893b c1f6 d1bd
000000a0: 2311 183d ce60 2b3e ff6b 293e 5946 283e
000000b0: fd20 fd3d 32d5 2dbd cb17 afbd 1920 cabc
000000c0: 5fff b43c 083c 0ebe d03b 93bb ff7f 12be
000000d0: 4217 3e3d cf7d 333e 1abb a33d 226e 02be
000000e0: 53e3 293e d4e7 ec3d 55e8 9fbd fc0a 8ebd
000000f0: 846e 393b 8531 1a3e b96e 68bd f777 90bd
00000100: ce2a 0e3e b13b ddbd 5730 99bd 8a1d b33c
00000110: 39c5 17be 5558 cd3d 765b 293e a4c2 ff3d
00000120: f625 40bd 26ef 1ebe 2e44 95bd 3f91 68bc
00000130: a46b 06be 8ec7 85bd 56e1 853c 3970 283d
00000140: be91 ae3d 0c36 03bd e730 173e 555c e93d
00000150: abc6 a8bc 8f7d 85bd 1d64 a83d 8d0f 4e3d
00000160: b5f0 013e 3796 1b3e 2999 5cbd 5465 f3bd
00000170: 311f f43d 4248 8c3b ee0e 663d 5b39 26be
00000180: d407 a5bb f78a 8fbd 298d 0f3d 676e 2b3e
00000190: 65e4 2abe 98ef 943d 86d9 a93d 4125 953c
000001a0: 3ea3 0bbe e3ee 783d 09bc d8bd b3f2 153e
000001b0: 55a1 ef3d c6ea e1bd 6c52 21bd 801b c23b
000001c0: 5e4f 0bbe 206a 453e a36b a13d cb62 1e3d
000001d0: fef6 5c3d 8568 e83d 8e7b e5bd b73e 14be
000001e0: a61f 833c 11dd b03d f84c ba3c af4e 133d
000001f0: 150a 95bd a291 a33d 3ef3 043e b94b 043e
00000200: 8f6c de3d 9045 513e ff0f cebd 63e8 5a3e
00000210: 111f 1e3e a337 043c 5a0f 71bd a2f8 fc3b

fc1.weight f4 [34, 1020]
0.015872898 0.032843012 0.022592224 0.004316859 0.017923102 -0.0071529816 0.011385192 -0.0032827882
-0.016620714 -0.005343088 -0.0028632416 -0.010076968 -0.009644043 -0.01376133 0.029004646 0.01828988
-0.011842298 -0.012733272 -0.019992799 0.018476581 0.015777709 0.008301902 0.019073451 -0.031074615
-0.011878074 -0.025140703 -0.008004563 -0.0135830445 -0.011565459 0.054450106 0.0149136195 0.013634256
-0.015112352 0.023146078 0.051325366 0.036991663 0.0027261723 0.04407038 0.03727453 -0.034115948
0.0052616713 -0.044562284 -0.024295235 0.021026691 0.016980434 0.010756124 0.008211006 -0.029897854
-0.0239946 -0.009748901 -0.014760488 0.0021849042 0.021873191 0.005006711 0.03863097 0.023234684
-0.009809464 0.014431432 -0.0011109381 -0.0151772285 0.005084065 -0.0051111598 -0.025072942 0.030848106
0.028469417 0.02450051 0.0017219872 -0.0013508395 0.028929368 0.009691582 -0.013401238 0.036525697
0.03888058 -0.02180926 0.040070277 -0.060970638 -0.035271537 0.06682469 0.0044016084 -0.009659252
-0.011655134 -0.036527902 0.014425118 0.0025524504 -0.016121328 0.015479633 -0.006474448 0.029093461
0.004568771 -0.013542689 -0.015220726 -0.008854447 0.00849771 0.020752456 0.024577595 -0.016971895
0.024408057 0.004339301 0.008763079 -0.012562661 0.02048981 -0.0022649355 0.092158064 0.00058741146
0.020236973 0.016056422 0.03997719 -0.0045631556 0.010619448 -0.06117275 0.004612886 0.069450065
-0.017150877 -0.027215911 -0.03338786 -0.011581334 0.012259717 0.029516663 -0.006321927 -0.03906379
-0.0051045213 -0.008962191 0.055829264 -0.0031436502 0.0025551408 0.024343055 -0.024562303 -0.00012443557
-0.0061411606 -0.015200978 0.01799775 0.016031932 0.03545776 0.03981426 0.0011293866 -0.010392418
0.06973432 0.019520767 0.010244407 0.021135107 0.015145896 -0.025430094 -0.0068625715 -0.007049988
0.0016087951 0.07178984 -0.018585036 0.005654524 -0.020283502 -0.0087195095 0.0061104 0.024893923
0.007167892 -0.0027623933 0.0047865734 0.019058304 0.047649063 0.013281845 0.005468235 0.024731569
0.006927718 0.013352477 0.023514472 -0.031565346 -0.0053022606 0.053498026 -0.009580934 -0.011985084
-0.012781654 -0.004427143 0.08849772 0.018704697 0.0031474 0.02477977 0.043559168 -0.023105001
0.022638906 -0.045673583 -0.017884977 0.07705629 0.028154844 -0.019879375 -0.032246105 -0.011142004
-0.011824022 0.024108157 0.015437815 -0.036888186 -0.029276477 -0.004309437 0.011090708 -0.031131165
-0.03149774 0.020295411 -0.0019611134 -0.01802965 0.020797556 0.029087404 0.0039032607 0.058010686
0.008487254 0.015106546 0.010985687 -0.031757247 0.08815057 -0.014205267 -0.00799014 0.03757238
0.04001451 -0.02799838 0.0013362083 -0.013187376 -0.06272505 0.05378416 0.00024341446 0.016000807
-0.019134363 -0.003423704 0.017711286 0.0028397788 -0.015235187 -0.010643045 -0.04569131 0.029480213
0.017444586 0.020680226 -0.018970547 0.008320855 -0.016254783 -0.009554226 -0.032992385 0.0187882
-0.032278255 0.03376562 0.035005674 0.040645726 0.006863857 -0.0033933097 0.0642125 -0.009041119
-0.016818974 0.05919698 0.03996814 -0.03308503 -0.0039162603 -0.057525095 -0.019655712 0.027030293
0.014176445 -0.016420206 -0.06958394 -0.043234803 -0.009692741 0.002627877 -0.025177684 0.011211974
00000000: e107 823c 6586 063d 5413 b93c 7074 8d3b
00000010: 78d3 923c 8f63 eabb f588 3a3c 0c24 57bb
00000020: 2a28 88bc 1215 afbb 39a5 3bbb de19 25bc
00000030: 0c02 1ebc 3477 61bc 279b ed3c a9d4 953c
00000040: 3306 42bc 379f 50bc f0c7 a3bc 335c 973c
00000050: 4140 813c b304 083c ed3f 9c3c 3190 febc
00000060: 419c 42bc e0f3 cdbc 9225 03bc 6b8b 5ebc
00000070: 0d7d 3dbc 1307 5f3d 4158 743c 3762 5f3c
00000080: cc99 77bc d89c bd3c 8c3a 523d 9284 173d
00000090: 95a9 323b 2583 343d 2dad 183d 2abd 0bbd
000000a0: 196a ac3b f186 36bd cd06 c7bc 2b40 ac3c
000000b0: 8d1a 8b3c 743a 303c 7587 063c 58ec f4bc
000000c0: 5390 c4bc dbb9 1fbc f9d5 71bc 9c30 0f3b
000000d0: 682f b33c 560f a43b 823b 1e3d aa56 be3c
000000e0: e0b7 20bc d071 6c3c e69c 91ba e9a9 78bc
000000f0: 3a98 a63b 847b a7bb c565 cdbc 2bb5 fc3c
00000100: b238 e93c 4bb5 c83c 4db4 e13a a70e b1ba
00000110: 48fd ec3c 71c9 1e3c de90 5bbc f89b 153d
00000120: 3e41 1f3d 55a9 b2bc bb20 243d 59bc 79bd
00000130: e378 10bd 62db 883d 5e3b 903b d741 1ebc
00000140: 2df5 3ebc 489e 15bd 5557 6c3c 0347 273b
00000150: e010 84bc 499e 7d3c 9b27 d4bb 6955 ee3c
00000160: a1b5 953b 28e2 5dbc 5a60 79bc 3e12 11bc
00000170: fb39 0b3c 0e01 aa3c f456 c93c a508 8bbc
00000180: 68f3 c73c b230 8e3b 0493 0f3c 9fd3 4dbc
00000190: 3fda a73c 506f 14bb 5ebd bc3d 84fc 193a
000001a0: 02c8 a53c c288 833c 1fbf 233d 8686 95bb
000001b0: 31fd 2d3c 4790 7abd b127 973b d63b 8e3d
000001c0: ff7f 8cbc e7f3 debc b5c1 08bd a3bf 3dbc
000001d0: fbdc 483c eecc f13c 2b28 cfbb 5a01 20bd
000001e0: d443 a7bb 27d6 12bc 3aad 643d b305 4ebb
000001f0: 2674 273b 166b c73c e236 c9bc eb7a 02b9
00000200: ca3b c9bb 860d 79bc 0470 933c 6655 833c
00000210: 283c 113d 4714 233d ed07 943a f644 2abc
00000220: ded0 8e3d 04ea 9f3c 28d8 273c 8823 ad3c
00000230: 7e26 783c c652 d0bc 6cdf e0bb 9603 e7bb
00000240: 35de d23a 8d06 933d a53f 98bc 9649 b93b
00000250: 9629 a6bc 46dc 0ebc c039 c83b 57ee cb3c
00000260: a3e0 ea3b 4509 35bb b0d8 9c3b 2920 9c3c
00000270: aa2b 433d 189c 593c e12e b33b dc99 ca3c
00000280: e901 e33b 59c4 5a3c 6ca1 c03c aa4a 01bd
00000290: 96be adbb bf20 5b3d 5af9 1cbc 165d 44bc
000002a0: 246a 51bc 9111 91bb 4b3e b53d 983a 993c
000002b0: 9c44 4e3b f2fe ca3c 196b 323d b346 bdbc
000002c0: 3a75 b93c 3914 3bbd 8483 92bc b0cf 9d3d
000002d0: fda4 e63c 12da a2bc 7e14 04bd f48c 36bc
000002e0: 8bb9 41bc 787e c53c e4ee 7c3c 1118 17bd
000002f0: 39d5 efbc 2d36 8dbb cdb5 353c c906 ffbc
00000300: c603 01bd 9042 a63c 0686 00bb ebb2 93bc
00000310: a35f aa3c b548 ee3c d9cd 7f3b 9d9c 6d3d
00000320: 200e 0b3c 7281 773c 50fd 333c e313 02bd
00000330: 4988 b43d 35bd 68bc 13e9 02bc 7fe5 193d
00000340: 41e6 233d dc5c e5bc b623 af3a dd0f 58bc
00000350: fe75 80bd c84c 5c3d 123d 7f39 2014 833c
00000360: abbf 9cbc 3960 60bb 4217 913c 951b 3a3b
00000370: 019d 79bc 2b60 2ebc d026 3bbd 7d80 f13c
00000380: f3e7 8e3c 9469 a93c 1f68 9bbc 3254 083c
00000390: c028 85bc 5489 1cbc 0623 07bd b6e9 993c
000003a0: 3436 04bd d24d 0a3d 1c62 0f3d 227c 263d
000003b0: 35ea e03b 4a62 5ebb d881 833d 3421 14bc
000003c0: f2c7 89bc 8878 723d a2b5 233d 2b84 07bd
000003d0: f953 80bb 6f9f 6bbd 0405 a1bc a26e dd3c
000003e0: 5244 683c ab83 86bc 0682 8ebd fa16 31bd
000003f0: 4dce 1ebc 7638 2c3b 6e41 cebc 6db2 373c

fc1.bias f4 [34]
0.025615083 -0.0022349772 -0.010407581 0.0025772592 -0.017757075 -0.021797232 -0.0015022885 0.002118248
-0.044738173 0.0192668 0.026181469 0.032966927 0.015610088 -0.009439801 -0.00031395972 -0.016355732
0.035216577 0.008698028 -0.019780418 0.0132845 -0.009765144 0.020020617 0.030572768 0.021779872
-0.0010990052 -0.014154261 0.017322484 0.0104599185 0.011228498 -0.0037433018 0.023524929 0.018300764
0.0044180537 -0.017889474
00000000: b9d6 d13c b278 12bb 8f84 2abc 3ce7 283b
00000010: 4977 91bc 1c90 b2bc 70e8 c4ba 4ed2 0a3b
00000020: 603f 37bd 68d5 9d3c 857a d63c 5408 073d
00000030: 74c1 7f3c 65a9 1abc f69a a4b9 75fc 85bc
00000040: 423f 103d 2c82 0e3c 8b0a a2bc 3ba7 593c
00000050: fcfd 1fbc 4702 a43c be73 fa3c b46b b23c
00000060: 7f0c 90ba 46e7 67bc e2e7 8d3c 1460 2b3c
00000070: bcf7 373c 2f52 75bb 5ab7 c03c 7ceb 953c
00000080: 52c5 903b f28c 92bc

fc2.weight f4 [4, 34]
0.13992807 0.21877949 -0.25203112 -0.15163569 0.25487745 -0.07004576 -0.08040009 0.033637058
0.2749761 -0.09926583 -0.020126516 -0.28221616 -0.13606872 0.21649668 0.2435516 -0.19961725
0.11330487 -0.1654711 -0.009694482 0.27750528 0.005286615 0.22215898 -0.012276038 0.19885205
0.09824915 -0.20699573 -0.14446221 0.031424318 0.24182259 -0.119222224 -0.11843666 -0.25391302
0.12890336 -0.18126324 -0.10305208 -0.31149757 0.08862812 -0.1510733 -0.061946444 -0.20340541
-0.04865574 0.2140651 -0.23607798 0.20637533 -0.063668236 0.299862 -0.09286661 -0.09099087
-0.29342964 0.07405117 -0.31956288 -0.047574114 0.24569587 -0.28256285 -0.04964893 -0.12439588
0.19785057 0.11036021 0.16711721 -0.014631998 -0.0626281 0.23064116 -0.1686756 0.23066923
-0.14409752 0.28028736 0.09586753 -0.14016995 0.10270794 -0.195132 -0.1987547 -0.11185111
-0.10190603 -0.038994633 -0.08387656 0.11387696 -0.20567092 0.22867195 0.049638946 -0.052473236
-0.15400691 -0.09237102 0.20787582 0.07697144 0.14718135 0.17747328 0.0038000273 -0.15395279
-0.021631245 -0.10647174 0.11954308 0.16533363 -0.1894239 -0.22591446 -0.041411974 -0.20682438
-0.1744591 -0.00557456 -0.10821124 -0.14744698 0.02446718 0.14471085 -0.14218599 0.05209171
0.0077009373 0.17232098 -0.1192354 0.07421491 0.20170566 -0.1351048 0.07921439 -0.08956599
-0.17100054 -0.20045581 0.13278942 0.18098274 -0.16277927 -0.14824802 -0.06204976 0.15028344
-0.111465365 0.044608194 0.20113136 -0.19163261 -0.14641082 0.067239694 0.17091185 0.065394744
0.14709602 0.17879215 0.066059254 0.13482325 0.1590037 0.19496398 -0.11303501 0.023643168
00000000: 4e49 0f3e bb07 603e 390a 81be 6346 1bbe
00000010: 4c7f 823e 2774 8fbd cda8 a4bd 03c7 093d
00000020: abc9 8c3e e24b cbbd 5de0 a4bc a37e 90be
00000030: 9955 0bbe 4eb1 5d3e 9765 793e 7768 4cbe
00000040: 620c e83d 4271 29be 9bd5 1ebc 2c15 8e3e
00000050: 573b ad3b a57d 633e 6f21 49bc df9f 4b3e
00000060: da36 c93d b0f6 53be e7ed 13be c9b6 003d
00000070: 57a0 773e c82a f4bd eb8e f2bd e300 82be
00000080: 3eff 033e 129d 39be f80c d3bd 9c7c 9fbe
00000090: a982 b53d f6b2 1abe 8ebb 7dbd 8249 50be
000000a0: 3e4b 47bd e233 5b3e 6dbe 71be 0e54 533e
000000b0: 7e64 82bd 8387 993e d930 bebd 6c59 babd
000000c0: 693c 96be 24a8 973d bf9d a3be 13dd 42bd
000000d0: b397 7b3e 14ac 90be ad5c 4bbd 44c3 febd
000000e0: 5799 4a3e 8904 e23d c620 2b3e 0cbb 6fbc
000000f0: 2943 80bd 322d 6c3e 4cb9 2cbe 8e34 6c3e
00000100: 4d8e 13be d381 8f3e 3256 c43d b688 0fbe
00000110: 8a58 d23d afd0 47be 5a86 4bbe 3212 e5bd
00000120: 1cb4 d0bd d6b8 1fbd 79c7 abbd 5338 e93d
00000130: 669b 52be fb28 6a3e 3552 4b3d 2dee 56bd
00000140: fdb3 1dbe 042d bdbd 66dd 543e 34a3 9d3d
00000150: b5b6 163e 8ebb 353e e109 793b cda5 1dbe
00000160: 0234 b1bc db0d dabd 01d3 f43d 384d 293e
00000170: 57f8 41be 1f56 67be 9a9f 29bd c5c9 53be
00000180: 68a5 32be ccaa b6bb db9d ddbd 57fc 16be
00000190: 656f c83c 152f 143e 3499 11be 1e5e 553d
000001a0: 2558 fc3b e974 303e b031 f4bd fdfd 973d
000001b0: ee8b 4e3e ea58 0abe 273b a23d 606e b7bd
000001c0: c41a 2fbe 4a44 4dbe f3f9 073e 8a53 393e
000001d0: 9caf 26be 54ce 17be e427 7ebd e7e3 193e
000001e0: f447 e4bd 15b7 363d 61f5 4d3e 573b 44be
000001f0: b8ec 15be f7b4 893d 8403 2f3e aeed 853d
00000200: 57a0 163e 4a15 373e 134a 873d 1b0f 0a3e
00000210: ded1 223e a3a4 473e e67e e7bd 51af c13c

fc2.bias f4 [4]
-0.026635997 0.045056824 0.041521735 -0.016835501
00000000: bc33 dabc 818d 383d b212 2a3d 9bea 89bc
