src/checkpoints/Sample/lstm100.ckpt (torch_old, 218724 bytes, 12 tensors)

lstm.weight_ih_l0 f4 [136, 36]
0.054677814 0.13139161 -0.13285457 -0.1534324 -0.10842027 0.15490723 -0.091040015 -0.08686968
0.094066925 -0.034824688 -0.03934513 0.052190308 0.06316728 -0.16242857 0.028797751 -0.076937266
-0.08749142 0.13127637 -0.11133041 0.058970995 -0.09681938 -0.059368916 -0.1579981 0.12294328
-0.06179689 -0.15952995 -0.124744244 0.04332683 -0.10219042 0.05229702 0.04948257 -0.06203893
-0.07974901 0.14551917 0.16254333 -0.12768105 0.18166101 0.06458657 -0.02146452 -0.0397719
-0.08704774 0.20645657 0.18624847 0.07896013 0.021364795 -0.049944658 0.04492453 -0.07179639
0.07919126 -0.040958658 0.14289095 0.15978508 0.0024425564 0.017921126 -0.050496895 0.02923515
-0.05173116 0.10630899 -0.011353738 0.2098536 0.12160012 0.0120199965 0.22175188 -0.05206638
-0.06587467 0.07177492 0.10921642 0.02527963 0.0016123593 0.04716647 0.20128348 0.11791128
-0.01838764 0.09070732 -0.13129959 -0.044917975 -0.12203171 0.043528844 -0.11866691 0.021535354
-0.11909849 0.07128371 -0.14352454 -0.06384925 0.18698226 0.16488223 0.19635908 -0.07450559
-0.12778977 -0.1320566 0.074459024 0.058600243 0.13106114 0.06403919 -0.035534326 0.1026906
0.050900567 0.055009525 0.11570252 0.04313912 0.07353887 -0.05472828 0.07892685 -0.034460876
-0.036195192 -0.107919455 -0.035800975 -0.03732701 -0.090379424 -0.10173105 0.23799902 0.17989902
0.023428168 0.09094768 0.084061235 0.003211854 0.029736152 0.21609788 -0.04609211 0.19908501
0.004886089 0.03269846 0.03188549 0.13013466 0.2061046 0.081771486 -0.03754543 0.021519579
-0.015302885 0.12420401 0.1254255 0.17214744 -0.034530252 0.017821588 0.085558414 0.1433417
0.087009534 0.13505957 0.15300544 0.028756537 0.17829448 0.14465585 -0.0044878153 -0.00093724363
0.026698163 0.07877195 0.11522573 0.06627134 -0.12763374 0.100556865 -0.13813569 -0.019797977
0.09515926 -0.16403084 0.19088133 0.0072417436 -0.00020693992 0.008006394 0.14182183 0.04068824
0.13138977 0.17698255 0.10933795 0.025017228 -0.112161055 -0.014701546 0.10080939 -0.12625901
0.16810897 0.015096321 0.10653069 -0.14293039 0.18330513 0.08942393 0.056672744 0.14970429
0.013000112 0.17429827 -0.037040852 -0.10603578 -0.014663576 -0.08868774 0.0314574 -0.08650524
0.1159656 0.17287809 0.14671731 0.13580325 0.020338302 -0.022178479 0.025380565 0.018648326
-0.12489061 -0.038162403 0.16775179 0.07821829 -0.1542913 0.010842645 0.04752385 -0.062888354
0.077130094 -0.14134648 -0.1553964 -0.03147663 -0.13688958 0.040444482 0.052088343 -0.0984753
0.13950689 0.14753875 0.05589088 0.17266305 0.14351968 -0.09072113 0.080338456 0.11309887
0.055060532 -0.096011385 -0.07006812 -0.14418063 0.06593242 -0.07764066 -0.0040141656 -0.076528974
0.1847409 -0.082855776 0.055772197 -0.10554196 0.04441984 -0.09778917 -0.11978172 0.061846912
0.17732437 -0.01160109 -0.120924614 -0.1378774 0.049717262 -0.06383586 0.1899266 0.027707761
0.07916164 -0.08073649 0.051692925 -0.050587114 -0.13441534 0.05509207 -0.028809765 0.03636026
-0.04694767 0.16739556 0.11678366 0.15428138 -0.11508169 -0.1363953 -0.0068022846 -0.14697547
00000000: d8f5 5f3d 868b 063e 070b 08be 621d 1dbe
00000010: 720b debd 00a0 1e3e 3073 babd bbe8 b1bd
00000020: 29a6 c03d 55a4 0ebd 5c28 21bd 81c5 553d
00000030: d95d 813d ad53 26be 43e9 eb3c 4991 9dbd
00000040: b42e b3bd 506d 063e 3301 e4bd 928b 713d
00000050: 3d49 c6bd d22c 73bd 41ca 21be b0c9 fb3d
00000060: bc1e 7dbd d25b 23be e979 ffbd 7977 313d
00000070: 3649 d1bd 6635 563d 3cae 4a3d 881c 7ebd
00000080: 7353 a3bd fa02 153e c271 263e d2be 02be
00000090: 5805 3a3e f745 843d 5cd6 afbc dce7 22bd
000000a0: 1646 b2bd 5a69 533e ebb7 3e3e d9b5 a13d
000000b0: 3905 af3c c592 4cbd c902 383d fc09 93bd
000000c0: 072f a23d 44c4 27bd 0152 123e b39e 233e
000000d0: 4c13 203b 53cf 923c d5d5 4ebd 8e7e ef3c
000000e0: 0ee4 53bd 87b8 d93d 0705 3abc dde3 563e
000000f0: 7c09 f93d 85ef 443c ed12 633e 8e43 55bd
00000100: 4de9 86bd bbfe 923d dcac df3d 3a17 cf3c
00000110: cd55 d33a a131 413d 421d 4e3e 787b f13d
00000120: ada1 96bc c2c4 b93d 6673 06be e9fb 37bd
00000130: c3eb f9bd 4d4b 323d a307 f3bd e96a b03c
00000140: e9e9 f3bd 32fd 913d 19f8 12be 65c3 82bd
00000150: 4778 3f3e e3d6 283e 5b12 493e 6396 98bd
00000160: 52db 02be d839 07be f97d 983d cf06 703d
00000170: e434 063e fb26 833d 718c 11bd 734f d23d
00000180: 1d7d 503d ab51 613d 71f5 ec3d a5b2 303d
00000190: 8c9b 963d c32a 60bd 66a4 a13d d926 0dbd
000001a0: 6941 14bd e004 ddbd 0ba4 12bd 35e4 18bd
000001b0: d918 b9bd 5e58 d0bd 04b6 733e 7337 383e
000001c0: 6eec bf3c c742 ba3d 4c28 ac3d f87d 523b
000001d0: 3b99 f33c c348 5d3e 15cb 3cbd f1dc 4b3e
000001e0: 7c1b a03b d2ee 053d 5c9a 023d 0542 053e
000001f0: 160d 533e cf77 a73d 3dc9 19bd d449 b03c
00000200: f4b8 7abc ac5e fe3d 8b6f 003e 6b47 303e
00000210: 986f 0dbd 94fe 913c 4039 af3d 2bc8 123e
00000220: 0e32 b23d 0e4d 0a3e 75ad 1c3e d492 eb3c
00000230: d492 363e aa20 143e 860e 93bb 5bb1 75ba
00000240: 1bb6 da3c 3053 a13d 78fb eb3d 45b9 873d
00000250: 6bb2 02be c2f0 cd3d 7173 0dbe 5e2f a2bc
00000260: dce2 c23d b3f7 27be 6576 433e 264c ed3b
00000270: 03fe 58b9 402d 033c be39 113e b6a8 263d
00000280: 0a8b 063e ea3a 353e 93ec df3d eef0 cc3c
00000290: b2b4 e5bd c1de 70bc 2775 ce3d 0b4a 01be
000002a0: c224 2c3e 8f56 773c c32c da3d 585c 12be
000002b0: 57b4 3b3e e523 b73d ae21 683d 154c 193e
000002c0: 6cfe 543c 3f7b 323e 26b8 17bd 4929 d9bd
000002d0: 7f3f 70bc eba1 b5bd 7ad9 003d a929 b1bd
000002e0: 5f7f ed3d f406 313e 103d 163e 0210 0b3e
000002f0: 839c a63c a4af b5bc e7ea cf3c 60c4 983c
00000300: a6c6 ffbd 2e50 1cbd 20c7 2b3e e930 a03d
00000310: 8afe 1dbe 59a5 313c 5ea8 423d 9ccb 80bd
00000320: 62f6 9d3d 22bd 10be 3c20 1fbe a4ed 00bd
00000330: c82c 0cbe 1da9 253d 965a 553d 6bad c9bd
00000340: e5da 0e3e 6614 173e d6ed 643d 95ce 303e
00000350: d3f6 123e 00cc b9bd 7d88 a43d 61a0 e73d
00000360: 2787 613d 9ea1 c4bd e07f 8fbd 16a4 13be
00000370: 9407 873d 1102 9fbd 4389 83bb 39bb 9cbd
00000380: b82c 3d3e 4ab0 a9bd 6371 643d 6226 d8bd
00000390: 94f1 353d b045 c8bd 1e50 f5bd 3053 7d3d
000003a0: 8594 353e 8012 3ebc 53a7 f7bd bc2f 0dbe
000003b0: 54a4 4b3d 60bc 82bd 1e7c 423e 63fb e23c
000003c0: 7f1f a23d 2c59 a5bd f6bb 533d 6f34 4fbd
000003d0: 2da4 09be 39a8 613d 7502 ecbc 7fee 143d
000003e0: 334c 40bd be69 2b3e 462c ef3d f0fb 1d3e
000003f0: f3af ebbd 36ab 0bbe b3e5 debb bd80 16be

lstm.weight_hh_l0 f4 [136, 34]
-0.13712205 0.07019323 0.12495743 -0.010103169 -0.17913413 0.02374267 -0.11695829 0.12088846
0.09231678 0.023723086 -0.16513613 -0.025341898 -0.15245269 -0.079936646 0.14449161 0.1394547
-0.09541934 0.15207678 -0.07079506 0.019502113 0.14786658 -0.024462165 0.023272712 -0.024539694
0.07865341 -0.0183129 0.06727417 -0.14627162 -0.15920325 0.095216475 -0.14638253 0.08171872
0.016954081 0.035214555 -0.07337887 0.17146091 0.22663274 0.15890095 0.17895764 -0.06766876
-0.18550873 0.09935002 -0.0049007405 -0.22215939 -0.20401853 0.03581315 0.024986427 -0.04215796
0.115118265 -0.064018786 0.077574946 0.04045437 -0.12872298 0.0054461206 0.09212312 -0.121936336
0.16931303 -0.08774102 -0.08040649 0.0914651 -0.010925228 0.09016685 0.17810805 0.028993187
-0.2564897 0.028738545 0.09743676 -0.039584484 0.13703926 -0.12366631 0.06083187 -0.08007078
-0.11121724 -0.084886126 0.025210956 0.14331207 -0.09887553 -0.020026261 0.17590553 0.116328485
-0.14151345 0.14635132 -0.11700767 0.11596092 -0.01592126 0.035558674 0.0813862 0.15767924
-0.025849035 -0.04910844 0.06782463 -0.07436925 -0.1881599 0.13416816 -0.17904167 0.020198096
0.095020756 -0.033719648 0.057829645 0.14199272 0.14174822 -0.14017648 0.027329136 0.07734679
0.051146273 0.12099975 0.19419782 -0.19091873 -0.12247888 -0.028414382 0.041937705 0.06924918
-0.21302427 0.19750498 0.12302687 0.029389381 0.07840337 0.08266935 -0.040655956 -0.10002563
-0.002087359 0.10911714 0.09179771 -0.14812587 -0.062713794 0.06726359 -0.094769806 0.13235675
-0.0048682154 -0.21210068 0.19183972 0.21165419 0.012644409 0.02678392 0.08058564 -0.17229223
0.02047564 -0.019870695 0.1135044 0.1548151 0.03439157 0.1339035 0.11357824 -0.10320765
0.15896563 0.03521407 0.14714321 0.12154185 -0.058117677 0.079938576 -0.054066032 0.1187859
0.1190423 0.069521524 -0.0179102 -0.1500444 -0.10563696 0.14945859 0.041526496 0.04180027
-0.034398515 0.09525101 0.097370766 -0.17180963 -0.10150501 0.036875885 -0.13403827 -0.025618969
-0.04273765 0.13789208 0.055394042 0.0985177 0.17874299 0.023851002 -0.1199511 -0.1711474
0.00017192285 0.101635225 0.14436537 -0.048322387 0.06528836 0.05458416 -0.04426013 -0.10388878
0.0484969 -0.03681766 -0.07449609 0.012345073 0.097824514 -0.117906004 -0.05720361 0.15495123
0.18309568 -0.10839141 -0.121953286 0.022264667 -0.12406161 -0.09925302 -0.002017062 0.13448027
-0.08417415 0.17671256 -0.0994433 -0.09862141 0.10824391 0.08839959 0.11549676 0.00013587406
-0.17533998 -0.03899979 -0.14733317 0.12895983 -0.009464587 0.038639836 -0.08580827 0.053514883
-0.0003379658 -0.042204745 0.045974698 -0.107226215 0.119243056 -0.048104633 -0.053445257 0.013536882
-0.15463965 -0.05840792 0.09623372 0.17585152 -0.15100583 0.06134414 0.18628037 -0.069808796
-0.0051934207 0.13008776 -0.047937647 -0.04094973 0.06617274 0.04167601 0.12817644 -0.20916335
0.13093457 0.1852392 0.17119783 0.14620031 0.11826093 -0.154576 0.069067985 0.056617405
0.15258734 0.036553696 0.07017725 -0.11873576 0.018155435 -0.04107051 0.12324442 -0.09796746
00000000: b969 0cbe 78c1 8f3d aee9 ff3d c387 25bc
00000010: f06e 37be fd7f c23c d487 efbd 5e94 f73d
00000020: 9410 bd3d eb56 c23c 7219 29be d099 cfbc
00000030: 8f1c 1cbe d3b5 a3bd 9cf5 133e 36cd 0e3e
00000040: 376b c3bd 04ba 1b3e 00fd 90bd e5c2 9f3c
00000050: 566a 173e e164 c8bc 6aa6 be3c 7807 c9bc
00000060: 0a15 a13d ef04 96bc 0ac7 893d 3ac8 15be
00000070: 2d06 23be db00 c33d 4de5 15be 255c a73d
00000080: 49e3 8a3c 233d 103d a947 96bd 7393 2f3e
00000090: 6a12 683e eeb6 223e ac40 373e eb95 8abd
000000a0: 00f6 3dbe 0678 cb3d 6496 a0bb c07d 63be
000000b0: 3cea 50be cfb0 123d 56b0 cc3c d3ad 2cbd
000000c0: 20c3 eb3d 481c 83bd 9ddf 9e3d 7bb3 253d
000000d0: f5cf 03be 5f75 b23b 0cab bc3d c2b9 f9bd
000000e0: 6560 2d3e 90b1 b3bd 28ac a4bd 0e52 bb3d
000000f0: baff 32bc 66a9 b83d f561 363e 1f83 ed3c
00000100: 9e52 83be 196d eb3c ed8c c73d 5723 22bd
00000110: 0554 0c3e c344 fdbd d72a 793d 26fc a3bd
00000120: ddc5 e3bd c7d8 adbd 3587 ce3c 66c0 123e
00000130: 417f cabd 1d0e a4bc 9420 343e a13d ee3d
00000140: e7e8 10be 1fdd 153e b8a1 efbd eb7c ed3d
00000150: 4d6d 82bc f9a5 113d cfad a63d ab76 213e
00000160: 5bc1 d3bc ee25 49bd a4e7 8a3d e84e 98bd
00000170: fdac 40be 6163 093e b356 37be 7a76 a53c
00000180: 3e9a c23d 9d1d 0abd c7de 6c3d 8a66 113e
00000190: 7226 113e 6c8a 0fbe 5ae1 df3c fe67 9e3d
000001a0: c17e 513d b8ce f73d cbdb 463e 3380 43be
000001b0: 35d6 fabd 47c5 e8bc dfc6 2b3d 84d2 8d3d
000001c0: 0923 5abe bf3e 4a3e 83f5 fb3d 00c2 f03c
000001d0: f291 a03d 8c4e a93d dc86 26bd 3dda ccbd
000001e0: 13cc 08bb cf78 df3d 7000 bc3d 4fae 17be
000001f0: 1770 80bd 7ec1 893d ac16 c2bd 8788 073e
00000200: 8d85 9fbb ec30 59be a271 443e e0bb 583e
00000210: 7f2a 4f3c f469 db3c 160a a53d 606d 30be
00000220: 88bc a73c dec7 a2bc ff74 e83d d987 1e3e
00000230: 2dde 0c3d 001e 093e b59b e83d 885e d3bd
00000240: e3c7 223e a13c 103d b6ac 163e efea f83d
00000250: cd0c 6ebd d6b6 a33d 5874 5dbd 0646 f33d
00000260: 73cc f33d 4d61 8e3d 69b8 92bc 3da5 19be
00000270: 3158 d8bd ac0b 193e b017 2a3d c336 2b3d
00000280: 75e5 0cbd f612 c33d 536a c73d ddee 2fbe
00000290: dce1 cfbd 2b0b 173d 5441 09be dfde d1bc
000002a0: ad0d 2fbd 9533 0d3e dde4 623d a6c3 c93d
000002b0: 6708 373e 2d63 c33c eca8 f5bd 4441 2fbe
000002c0: 3046 3439 2126 d03d 84d4 133e b2ed 45bd
000002d0: e7b5 853d a493 5f3d 1c4a 35bd a4c3 d4bd
000002e0: afa4 463d 1dce 16bd 6891 98bd fd42 4a3c
000002f0: 3858 c83d b478 f1bd 554e 6abd 89ab 1e3e
00000300: 6f7d 3b3e 51fc ddbd a5c2 f9bd 6464 b63c
00000310: 0314 febd 2b45 cbbd af30 04bb 32b5 093e
00000320: 7f63 acbd 23f4 343e eea8 cbbd 06fa c9bd
00000330: fcae dd3d d80a b53d 9189 ec3d 6a79 0e39
00000340: 538c 33be 3ebe 1fbd 82de 16be 0c0e 043e
00000350: 5b11 1bbc ce44 1e3d 3fbc afbd 6c32 5b3d
00000360: 0031 b1b9 e2de 2cbd f74f 3c3d 6b99 dbbd
00000370: b435 f43d 5d09 45bd 6ae9 5abd ccc9 5d3c
00000380: db59 1ebe 253d 6fbd 2f16 c53d 6c12 343e
00000390: 46a1 1abe fe43 7b3d 48c0 3e3e eaf7 8ebd
000003a0: 922d aabb ba35 053e 445a 44bd e7ba 27bd
000003b0: 9385 873d 77b4 2a3d af40 033e eb2e 56be
000003c0: b613 063e 58af 3d3e 7c4e 2f3e 89b5 153e
000003d0: c932 f23d 2c49 1ebe 8473 8d3d a7e7 673d
000003e0: db3f 1c3e 54b9 153d 17b9 8f3d bc2b f3bd
000003f0: b5ba 943c 8d39 28bd 9267 fc3d 2aa3 c8bd

lstm.bias_ih_l0 f4 [136]
0.1525232 0.086858936 -0.020042634 -0.014656206 0.17036793 -0.12477756 -0.0464707 0.11630852
-0.009729053 0.09052857 -0.0018110062 0.19273674 0.090682976 -0.0060716677 0.1316537 -0.1184009
0.07738215 -0.069093704 0.09716285 -0.0342477 0.17942943 -0.08084821 0.17632478 0.015652224
0.09824299 0.13833168 -0.07824746 0.12792967 0.048988733 -0.12768538 0.14468864 -0.07578131
0.13845903 0.19749273 0.09790564 0.1401764 0.06050465 -0.041466855 0.17145126 0.086488165
0.1034527 0.0067050876 0.1456216 -0.033061784 0.15779644 0.09317024 0.03424852 -0.12723248
0.09817544 0.07557777 0.16466144 0.029638303 0.066942684 -0.14169239 -0.09545663 -0.12217942
0.15177529 0.15565377 -0.083959244 0.17068449 -0.12541845 0.045094 0.12676053 0.11710756
-0.023400417 0.0046854815 0.062193 0.16048625 -0.07066987 0.15275577 -0.027470125 0.10429023
0.033960752 0.13053662 0.05480136 0.13712941 -0.016291311 -0.12518272 0.10108967 -0.043294318
0.06248623 -0.0485771 0.018679367 0.12167836 -0.1481628 -0.10082826 -0.0610422 -0.12474769
-0.14969878 -0.074367754 0.16373496 -0.15719849 0.1330565 -0.015304606 0.08408723 -0.04665669
-0.0085153915 0.055725228 0.057198357 0.16440772 -0.14998057 -0.07294214 0.07907605 0.22127362
-0.09531828 0.19065863 0.10187069 -0.11666081 -0.12825121 -0.08818998 0.19053242 0.06977694
0.2124723 -0.06417348 -0.027225083 -0.046298664 0.20945404 -0.122060694 -0.13042265 0.18901534
0.17644341 0.08970958 -0.035983052 0.13765435 0.16630884 -0.10225116 -0.004439293 -0.030176697
-0.005455051 -0.0017879192 0.16653909 0.096956216 0.15410735 -0.011691393 0.19006208 0.17760833
00000000: 0b2f 1c3e 19e3 b13d 7330 a4bc 9520 70bc
00000010: ee74 2e3e 618b ffbd 1058 3ebd 2933 ee3d
00000020: 9b66 1fbc 0b67 b93d 495f edba c85c 453e
00000030: ffb7 b93d d7f4 c6bb 3ad0 063e 2c7c f2bd
00000040: 887a 9e3d 0081 8dbd 51fd c63d 5147 0cbd
00000050: 59bc 373e bf93 a5bd 7c8e 343e 1839 803c
00000060: 9f33 c93d d2a6 0d3e 3440 a0bd ffff 023e
00000070: 69a8 483d f5bf 02be 4229 143e 3b33 9bbd
00000080: 34c8 0d3e 893b 4a3e c182 c83d 678a 0f3e
00000090: b9d3 773d 26d9 29bd eb90 2f3e b520 b13d
000000a0: 02df d33d 5ab6 db3b d41d 153e cb6b 07bd
000000b0: 6495 213e 0ad0 be3d 2d48 0c3d 3b49 02be
000000c0: 3510 c93d 85c8 9a3d 029d 283e 07cc f23c
000000d0: 3f19 893d cf17 11be c47e c3bd 3439 fabd
000000e0: fb6a 1b3e b463 1f3e d3f2 abbd eac7 2e3e
000000f0: b26d 00be 7cb4 383d 83cd 013e 17d6 ef3d
00000100: 3bb2 bfbc ab88 993b 16be 7e3d 8256 243e
00000110: 5dbb 90bd 026c 1c3e 0709 e1bc 1e96 d53d
00000120: 6e1a 0b3d 64ab 053e 6477 603d a76b 0c3e
00000130: 5b75 85bc e62f 00be 1a08 cf3d 6255 31bd
00000140: 90f1 7f3d c8f8 46bd 7905 993c 8132 f93d
00000150: fdb7 17be 0c7f cebd 6307 7abd b87b ffbd
00000160: a34a 19be 1f4e 98bd 23aa 273e a4f8 20be
00000170: f73f 083e 2cc0 7abc ed35 ac3d 161b 3fbd
00000180: 2484 0bbc 2340 643d d348 6a3d 7f5a 283e
00000190: 8294 19be b062 95bd a0f2 a13d 8d95 623e
000001a0: 3b36 c3bd 043c 433e 95a1 d03d ddeb eebd
000001b0: 4954 03be f39c b4bd ee1a 433e 36e7 8e3d
000001c0: 5792 593e 636d 83bd 2307 dfbc aba3 3dbd
000001d0: 1f7b 563e f5fa f9bd 848d 05be 3d8d 413e
000001e0: 95ad 343e a8b9 b73d f762 13bd 43f5 0c3e
000001f0: dd4c 2a3e 0e69 d1bd 7d77 91bb 1f35 f7bc
00000200: 49c0 b2bb 9d58 eaba 3989 2a3e fb90 c63d
00000210: 51ce 1d3e 428d 3fbc a29f 423e f5de 353e

lstm.bias_hh_l0 f4 [136]
0.021379186 0.03688878 -0.14492811 0.13609591 0.13034776 0.09780622 -0.09157563 0.12578058
0.03936246 0.13227175 0.27222282 0.024293395 0.005417861 -0.07878428 0.0029370822 0.05169441
-0.01720879 -0.056748014 0.017439933 0.086393245 0.1527254 -0.022873802 0.123606235 -0.10482802
0.16386586 0.009089222 0.013679243 0.016720494 0.091136694 0.009116641 -0.099238895 0.08472371
0.13894907 -0.088563226 -0.1604746 0.049893476 -0.14318828 -0.08627245 0.032922026 -0.071624815
-0.14745197 -0.16390525 0.01871891 0.17328943 0.14279321 -0.02246274 0.029473584 0.13484645
0.059463352 0.055540185 -0.029764922 -0.051702593 -0.118652284 -0.033995353 0.07012159 -0.14373738
-0.15224631 0.013784101 0.06860488 0.08726896 -0.016595144 -0.032286704 0.16771285 -0.12805268
0.04883164 0.05468999 0.043832276 -0.062613845 -0.12233981 0.13191524 0.14743386 -0.081551395
-0.07641083 -0.103885055 -0.030606054 -0.082347386 0.08433353 0.0124535 -0.17341882 -0.12663862
-0.077318445 0.16391528 0.037785877 0.01754473 -0.097808644 -0.119819 -0.08283715 0.08423213
-0.14525694 -0.15412565 0.11267245 0.0027338907 -0.00442935 0.0072201896 -0.107204355 0.037728213
0.09745374 0.1311995 -0.1513772 0.06210713 0.02727497 0.061170906 0.07041242 0.10493113
-0.114238635 0.060222857 -0.08579613 -0.15554489 0.03701284 0.14012219 -0.12771443 0.17487726
0.12672892 -0.09440468 0.105477214 0.043724865 0.10934685 0.0633784 0.008373642 0.149623
-0.017840404 0.077588126 -0.09949921 0.09215597 -0.13248584 -0.14294884 0.041953713 0.045770492
-0.078433685 0.009547188 0.15214096 0.018702302 0.22853446 -0.050365083 -0.10605979 0.15921648
00000000: 6723 af3c b018 173d 0968 14be ba5c 0b3e
00000010: e279 053e a14e c83d 018c bbbd a0cc 003e
00000020: 883a 213d 3f72 073e ca60 8b3e f102 c73c
00000030: 5088 b13b a759 a1bd 107c 403b 85bd 533d
00000040: 73f9 8cbc 9b70 68bd 31de 8e3c f1ee b03d
00000050: 0c64 1c3e d761 bbbc 4425 fd3d 13b0 d6bd
00000060: 74cc 273e f6ea 143c e71e 603c 6bf9 883c
00000070: e0a5 ba3d f75d 153c c33d cbbd a083 ad3d
00000080: aa48 0e3e a360 b5bd 7453 24be 1a5d 4c3d
00000090: f39f 12be 9caf b0bd 3fd9 063d 08b0 92bd
000000a0: a6fd 16be c7d6 27be 6658 993c c972 313e
000000b0: 6238 123e c803 b8bc 9672 f13c 3015 0a3e
000000c0: d88f 733d 1b7e 633d 91d5 f3bc 19c6 53bd
000000d0: f8ff f2bd b63e 0bbd e89b 8f3d e42f 13be
000000e0: 75e6 1bbe b6d6 613c b780 8c3d 12ba b23d
000000f0: 8af2 87bc 103f 04bd ebbc 2b3e 3e20 03be
00000100: b003 483d 9c02 603d 7989 333d b03b 80bd
00000110: 4b8d fabd ca14 073e e7f8 163e 6b04 a7bd
00000120: 487d 9cbd b0c1 d4bd 8cb9 fabc bfa5 a8bd
00000130: 0fb7 ac3d c409 4c3c b494 31be 8ead 01be
00000140: 2259 9ebd 68d9 273e 5dc5 1a3d f7b9 8f3c
00000150: e64f c8bd aa63 f5bd 86a6 a9bd e581 ac3d
00000160: 3cbe 14be 1dd3 1dbe d0c0 e63d 132b 333b
00000170: 1524 91bb 5797 ec3b f58d dbbd e688 1a3d
00000180: d495 c73d 2959 063e a002 1bbe 0c64 7e3d
00000190: c26f df3c 588e 7a3d 6334 903d 22e6 d63d
000001a0: f2f5 e9bd 3eac 763d e2b5 afbd 2947 1fbe
000001b0: c79a 173d 317c 0f3e 92c7 02be 0613 333e
000001c0: 3ac5 013e 3e57 c1bd 7004 d83d d818 333d
000001d0: 3ef1 df3d 89cc 813d 9a31 093c c636 193e
000001e0: 0a26 92bc 86e6 9e3d 3ec6 cbbd 45bc bc3d
000001f0: 5eaa 07be 2e61 12be a8d7 2b3d d779 3b3d
00000200: d7a1 a0bd cf6b 1c3c d7ca 1b3e 9235 993c
00000210: f004 6a3e 9e4b 4ebd e035 d9bd a509 233e

lstm.weight_ih_l1 f4 [136, 34]
-0.02300297 0.07884082 0.11901624 0.09525554 0.047519784 -0.18316835 -0.16615327 -0.10686981
0.00022111529 0.018205602 -0.06364235 0.23558238 0.035350353 0.22584115 0.17036621 0.19098763
-0.02397231 -0.14851274 0.07248777 0.03319061 0.018959004 -0.14224938 -0.09948069 -0.090060376
0.08273003 0.025514312 0.20632619 -0.13405505 0.13426869 0.15926655 0.045251578 0.2140686
0.054642256 0.11024651 -0.11302814 -0.17901604 0.12240512 0.021270398 -0.03486972 -0.15290824
0.01534901 -0.10680774 0.069805056 0.045767758 0.15667956 0.037210632 0.17385724 -0.035764
-0.010019191 -0.010733803 -0.076077 0.038391113 -0.16690925 0.0018208114 -0.17298914 0.011842187
0.2364796 0.20076981 -0.010698312 0.053906035 0.18722738 -0.026647441 -0.06837187 0.19160771
-0.049892724 0.19551623 0.12776154 -0.06425269 0.07824603 -0.14489087 0.0066044447 0.01368774
0.105678774 -0.22209929 -0.10725825 -0.15862793 0.018662712 0.04600269 -0.22072616 0.08099549
-0.021919945 -0.06993498 0.018292516 -0.05328898 0.17938459 0.015030861 -0.120710135 0.016483473
-0.022537608 0.12493912 0.18732128 0.034312483 0.07728115 0.077238716 0.15223941 -0.1398337
-0.05506471 -0.015454975 -0.0015732688 0.19977036 -0.08130433 -0.13159725 -0.1600396 0.12770103
0.084395885 0.23894474 0.15155838 -0.11842641 -0.024175983 -0.1010121 0.011852505 -0.17324853
-0.069443464 0.21442942 -0.07558896 0.12809972 0.11444962 0.17276444 -0.08747982 -0.18285507
0.04507092 -0.052303486 -0.08068818 0.01105824 -0.084241346 0.00758877 -0.12997083 -0.109020494
-0.15224896 -0.19936202 0.13888776 -0.009636187 0.053067643 0.041144956 -0.142204 -0.20023528
-0.21059988 0.1429227 0.14978816 -0.19475137 0.006711928 -0.26164612 -0.1299287 -0.1857463
0.13458915 -0.15328506 -0.16425723 0.06308467 0.19708586 0.24680924 -0.23043965 0.27522254
0.2748722 -0.07591865 -0.09909185 -0.011013712 -0.009120911 -0.27472743 0.18195055 0.22813703
-0.23615667 -0.16334864 0.11038242 -0.026256597 0.17217334 0.26421678 -0.29445153 0.0043517756
0.06831172 -0.10588754 -0.096475415 -0.14798772 -0.103984535 0.23687194 -0.020278884 0.028521648
-0.17982002 0.12964314 0.12718242 0.010495391 -0.071689926 0.14964382 0.07338548 -0.11521001
0.051232312 -0.010547873 -0.003588227 -0.04712931 -0.19351223 -0.008489762 -0.14908092 -0.048620682
0.17356144 -0.11155562 0.12708782 -0.025199933 0.19254078 -0.0017862275 -0.03708002 0.15402162
-0.15042292 -0.14713873 0.00045847835 -0.045947958 -0.16788267 -0.041686118 0.16619544 -0.10010126
-0.025798872 -0.041275937 -0.060503468 -0.1765586 -0.00853059 -0.033522073 -0.09593789 -0.045424696
0.013306022 -0.040414076 -0.07053523 0.12034076 -0.0017037615 0.1659101 0.019086702 -0.22046492
0.057184048 0.05226526 0.19890164 -0.02734837 -0.19741184 -0.12890555 -0.0047410885 -0.10933016
0.085043676 0.19301538 -0.13782394 0.2267542 0.12163649 0.0041080182 -0.020321202 -0.045451462
-0.020794207 0.07846084 -0.10417405 -0.16789015 -0.12439164 -0.0017200573 0.1252213 0.09894963
0.10651637 -0.13362741 -0.02967088 -0.16280946 -0.15706342 0.17272364 0.0028963182 0.022554478
00000000: b970 bcbc 4c77 a13d c9be f33d 5615 c33d
00000010: 1ba4 423d 7c90 3bbe 1524 2abe 8fde dabd
00000020: 2fdb 6739 ea23 953c ec56 82bd 823c 713e
00000030: 88cb 103d e742 673e 7b74 2e3e 4392 433e
00000040: 9461 c4bc b913 18be 7874 943d e1f2 073d
00000050: ea4f 9b3c d2a9 11be 88bc cbbd 9371 b8bd
00000060: 5d6e a93d 6403 d13c 2c47 533e ba45 09be
00000070: bb7d 093e c516 233e b859 393d cd34 5b3e
00000080: 8fd0 5f3d ecc8 e13d 4c7b e7bd fb4f 37be
00000090: 89af fa3d 423f ae3c 8dd3 0ebd fa93 1cbe
000000a0: 6a7a 7b3c 04be dabd f4f5 8e3d f976 3b3d
000000b0: 9b70 203e 2d6a 183d a207 323e 467d 12bd
000000c0: 8827 24bc d5dc 2fbc 42ce 9bbd 0040 1d3d
000000d0: 42ea 2abe 4ba8 ee3a 1124 31be bb05 423c
000000e0: b527 723e 9a96 4d3e f947 2fbc 93cc 5c3d
000000f0: 89b8 3f3e bc4b dabc 8d06 8cbd d034 443e
00000100: 505c 4cbd 6835 483e ecd3 023e ea96 83bd
00000110: 743f a03d 465e 14be 196a d83b 8b42 603c
00000120: 1d6e d83d ff6d 63be 37aa dbbd 5c6f 22be
00000130: 8be2 983c 516d 3c3d 0a06 62be f7e0 a53d
00000140: 7591 b3bc 123a 8fbd 30da 953c 8c45 5abd
00000150: 98b0 373e 0044 763c e036 f7bd 5908 873c
00000160: caa0 b8bc 15e0 ff3d 26d1 3f3e 3f8b 0c3d
00000170: 9445 9e3d 552f 9e3d a6e4 1b3e 9130 0fbe
00000180: 898b 61bd dd36 7dbc 2436 ceba 9a90 4c3e
00000190: e282 a6bd 6ec1 06be 6ce1 23be 0fc4 023e
000001a0: c0d7 ac3d eead 743e 1f32 1b3e 8c89 f2bd
000001b0: b60c c6bc 6fdf cebd 0231 423c 1068 31be
000001c0: 6038 8ebd 6393 5b3e 62ce 9abd 932c 033e
000001d0: 9064 ea3d 29e9 303e 9f28 b3bd 5c3e 3bbe
000001e0: 499c 383d 2e3c 56bd d83f a5bd 9f2d 353c
000001f0: ba86 acbd 37ab f83b 1317 05be 2346 dfbd
00000200: 27e7 1bbe 8f25 4cbe 9838 0e3e 19e1 1dbc
00000210: 755d 593d 9d87 283d ed9d 11be 7a0a 4dbe
00000220: 7fa7 57be 545a 123e 1162 193e e76c 47be
00000230: bcef db3b 7bf6 85be 070c 05be 4734 3ebe
00000240: bdd1 093e c2f6 1cbe 0c33 28be 8932 813d
00000250: e0d0 493e 90bb 7c3e 5ff8 6bbe f8e9 8c3e
00000260: 0dbc 8c3e 3d7b 9bbd abf0 cabd db72 34bc
00000270: e06f 15bc 13a9 8cbe 3f51 3a3e c19c 693e
00000280: 0ed3 71be de44 27be 2e10 e23d 1318 d7bc
00000290: 354e 303e 6c47 873e 5ac2 96be 5799 8e3b
000002a0: 04e7 8b3d 91db d8bd e794 c5bd 188a 17be
000002b0: d8f5 d4bd 8f8e 723e e71f a6bc 3ba6 e93c
000002c0: bd22 38be 2cc1 043e 1c3c 023e dcf4 2b3c
000002d0: 2bd2 92bd 3b3c 193e 204b 963d 3af3 ebbd
000002e0: f9d8 513d fcd0 2cbc 7628 6bbb aa0a 41bd
000002f0: 1228 46be a518 0bbc aba8 18be 7b26 47bd
00000300: 17ba 313e 4677 e4bd 4f23 023e 1770 cebc
00000310: 6929 453e d91f eaba 38e1 17bd d8b7 1d3e
00000320: 7708 1abe 89ab 16be ec5f f039 ed33 3cbd
00000330: 6fe9 2bbe 10bf 2abd 232f 2a3e e401 cdbd
00000340: 2858 d3bc f510 29bd 7cd2 77bd c7cb 34be
00000350: e3c3 0bbc 714e 09bd 167b c4bd 3f0f 3abd
00000360: 8001 5a3c 3b89 25bd c674 90bd 3775 f63d
00000370: c050 dfba 56e4 293e b75b 9c3c 8ec1 61be
00000380: d239 6a3d 1914 563d dfac 4b3e b009 e0bc
00000390: 5426 4abe d1ff 03be 225b 9bbb 7ee8 dfbd
000003a0: 612b ae3d d3a5 453e b821 0dbe 4132 683e
000003b0: 8d1c f93d 8e9c 863b a678 a6bc 502b 3abd
000003c0: 9d58 aabc 14b0 a03d 3459 d5bd 65eb 2bbe
000003d0: 0bc1 febd 8c73 e1ba 033a 003e 1ba6 ca3d
000003e0: 4125 da3d a0d5 08be 5810 f3bc 86b7 26be
000003f0: 3cd5 20be 77de 303e 28d0 3d3b 2bc4 b83c

lstm.weight_hh_l1 f4 [136, 34]
-0.08008271 -0.118968636 -0.09615915 -0.08150565 -0.1358696 0.11410101 -0.028095778 -0.0029165582
0.12607665 0.13418049 -0.060523517 0.024533035 0.23517978 0.26500127 0.02461152 0.028565092
-0.10511889 -0.031853184 -0.18792279 -0.11137954 0.112829626 0.18412903 -0.20244908 0.05675077
0.032531913 0.04989754 0.025481608 -0.03653728 -0.18312635 -0.07791042 0.03803874 0.099349335
0.03511677 -0.10020652 -0.09996125 -0.010230224 0.15358941 -0.020231394 0.01721358 0.09349197
-0.21368888 0.24649015 0.1941104 0.13113004 0.013436977 0.04177152 0.08793054 -0.16756435
0.038097903 -0.15025766 0.06487288 0.17876111 -0.22883646 -0.050959878 -0.19498692 0.21968438
0.03628188 -0.21864131 0.14421538 0.07338244 0.09023088 -0.116455466 0.079317056 -0.04340625
0.12095705 -0.12477303 -0.044931773 -0.030002302 -0.09296718 -0.2608924 -0.19384253 -0.014975764
0.04582383 -0.12220532 0.07919846 -0.018285265 0.10453084 0.19248845 -0.090398915 -0.05542146
-0.03891205 -0.076038204 -0.18034461 0.047297336 0.03809059 0.3037785 -0.023645712 -0.15163337
-0.021633916 0.2226511 -0.14824173 0.012224599 -0.06411962 0.101838835 0.22749212 0.0058460147
-0.08574047 -0.110205516 0.07538874 0.05376118 -0.24765587 -0.017866146 -0.050175574 0.030374778
0.018997386 0.12755375 0.045784734 -0.12678476 -0.0052301195 0.13686459 0.06979105 0.21462664
0.10529717 -0.043224204 -0.0055905594 -0.3576589 0.17962012 -0.09783189 -0.08449526 0.15659015
-0.0773765 -0.0718696 -0.17214267 0.05223666 0.19867301 0.057452597 0.09078064 0.13343365
-0.087688245 -0.031150103 0.055597886 0.24914831 -0.07479346 0.09503172 -0.10810475 -0.06775064
0.05909419 -0.058624256 0.17660147 -0.00966532 -0.052463382 0.14917058 -0.2640343 0.11859786
0.14282174 0.03247806 0.2573163 -0.11203922 0.042599607 0.051258978 0.121796235 0.05337244
-0.25395194 0.14789544 -0.14314222 0.06894193 -0.16323043 0.25962558 0.02234252 0.0024574776
0.02359848 0.036939774 -0.10099585 0.18100016 -0.051768545 0.07132633 0.19800371 0.01867709
-0.0013622565 0.028627198 0.12590036 0.06654224 -0.011265757 0.07574658 0.15530074 0.111021504
0.060400397 -0.113265485 0.015747147 -0.082523294 -0.1339628 -0.152744 0.09638831 0.13965967
-0.12187775 0.061267328 0.018788459 -0.1523673 -0.11883464 0.049856886 0.012018419 0.14220826
-0.018360458 -0.06496354 0.13468267 -0.15271522 0.08344594 -0.0964779 0.11619618 -0.15336893
0.12994497 0.04347527 0.15998165 0.107965864 0.17861329 0.0055980044 0.113603614 0.020393094
0.15521997 0.1324076 0.024458028 0.12772134 0.15190418 0.19019815 0.19463734 0.033792537
0.08517605 0.043777246 0.048656553 0.028384779 0.07238671 -0.032643072 -0.22942495 0.1809553
0.07812554 -0.05081279 0.21021558 -0.20634682 -0.024823302 -0.08809237 -0.088563785 0.22258373
0.020929568 0.08604775 -0.021497529 0.024187652 -0.15403114 0.020319793 -0.1506216 0.14436065
-0.10501061 -0.101234734 -0.0744884 0.05401531 -0.084810205 -0.10023526 0.104909085 0.10277106
-0.122786194 -0.07548591 0.0154805025 0.04981276 -0.08009595 0.127911 0.012842344 -0.02115207
00000000: 6702 a4bd d4a5 f3bd 17ef c4bd 6fec a6bd
00000010: 6721 0bbe caad e93d 1e29 e6bc ba23 3fbb
00000020: 3d1a 013e 9c66 093e 82e7 77bd 81f9 c83c
00000030: f8d2 703e 3fae 873e 199e c93c 5701 ea3c
00000040: 9348 d7bd 7c78 02bd d56e 40be f51a e4bd
00000050: 3813 e73d 528c 3c3e d04e 4fbe 7f73 683d
00000060: 2f40 053d 5d61 4c3d cebe d03c 1da8 15bd
00000070: 7985 3bbe 808f 9fbd 83ce 1b3d aa77 cb3d
00000080: 9ad6 0f3d 1339 cdbd 7cb8 ccbd ab9c 27bc
00000090: 8b46 1d3e 4fbc a5bc 7e03 8d3c b878 bf3d
000000a0: 42d1 5abe ea67 7c3e e0c4 463e f446 063e
000000b0: c426 5c3c 9d18 2b3d ed14 b43d fd95 2bbe
000000c0: 8c0c 1c3d 25dd 19be 13dc 843d 270d 373e
000000d0: 1b54 6abe 4ebb 50bd a7aa 47be f1f4 603e
000000e0: 4f9c 143d 82e3 5fbe 32ad 133e 8849 963d
000000f0: f8ca b83d 3480 eebd fb70 a23d c1ca 31bd
00000100: 54b8 f73d 0189 ffbd 610a 38bd 63c7 f5bc
00000110: 9465 bebd b093 85be a87e 46be e85c 75bc
00000120: c5b1 3b3d c846 fabd cd32 a23d fbca 95bc
00000130: 4414 d63d b11b 453e 1123 b9bd 9d01 63bd
00000140: 3e62 1fbd ebb9 9bbd 42ac 38be daba 413d
00000150: e104 1c3d db88 9b3e a7b4 c1bc c745 1bbe
00000160: 9c39 b1bc a6fe 633e aecc 17be af49 483c
00000170: 2651 83bd e190 d03d b2f3 683e ed8f bf3b
00000180: b398 afbd 6eb3 e1bd 6965 9a3d af34 5c3d
00000190: 8099 7dbe 065c 92bc e784 4dbd 87d4 f83c
000001a0: 68a0 9b3c 739d 023e c688 3b3d ddd3 01be
000001b0: 6c61 abbb 3b26 0c3e 9cee 8e3d 16c7 5b3e
000001c0: 0ba6 d73d dd0b 31bd 0331 b7bb 111f b7be
000001d0: 56ee 373e 165c c8bd da0b adbd 2b59 203e
000001e0: 9277 9ebd 5e30 93bd 2b46 30be 1cf6 553d
000001f0: f070 4b3e 6a53 6b3d 33eb b93d d5a2 083e
00000200: e595 b3bd 802e ffbc 9cba 633d bc20 7f3e
00000210: 502d 99bd fe9f c23d 0666 ddbd d9c0 8abd
00000220: c00c 723d fd1f 70bd 04d7 343e 4a5b 1ebc
00000230: d8e3 56bd 2cc0 183e 812f 87be 6fe3 f23d
00000240: dd3f 123e b707 053d f6be 833e d274 e5bd
00000250: ed7c 2e3d eff4 513d 4e70 f93d 0f9d 5a3d
00000260: fd05 82be e771 173e e093 12be 6d31 8d3d
00000270: e125 27be a5ed 843e a907 b73c a20d 213b
00000280: 9951 c13c 294e 173d ead6 cebd 1b58 393e
00000290: 410b 54bd 8a13 923d 7cc1 4a3e b200 993c
000002a0: be8d b2ba 9683 ea3c 06ec 003e 4c47 883d
000002b0: 0294 38bc 0621 9b3d 2807 1f3e 3e5f e33d
000002c0: 6866 773d bcf7 e7bd 2900 813c f901 a9bd
000002d0: 8b2d 09be ec68 1cbe 3c67 c53d f202 0f3e
000002e0: 0b9b f9bd 73f3 7a3d 41ea 993c 2c06 1cbe
000002f0: 935f f3bd bc36 4c3d e7e8 443c 0b9f 113e
00000300: ac68 96bc 9b0b 85bd 41ea 093e 6161 1cbe
00000310: b4e5 aa3d 3596 c5bd 43f8 ed3d bf0c 1dbe
00000320: 4b10 053e 2013 323d 3bd2 233e 351d dd3d
00000330: 67e6 363e 776f b73b 03a9 e83d 6b0f a73c
00000340: fcf1 1e3e dc95 073e 345c c83c 62c9 023e
00000350: c58c 1b3e 4ec3 423e 034f 473e 0b6a 0a3d
00000360: c870 ae3d c54f 333d 184c 473d 3287 e83c
00000370: 7c3f 943d beb4 05bd 60ee 6abe 594c 393e
00000380: 4800 a03d 1221 50bd c142 573e 954c 53be
00000390: 3d5a cbbc c669 b4bd ee60 b5bd fdec 633e
000003a0: 7c74 ab3c ce39 b03d 961b b0bc 2f25 c63c
000003b0: 57ba 1dbe b275 a63c 8c3c 1abe 47d3 133e
000003c0: cd0f d7bd 2854 cfbd 608d 98bd 283f 5d3d
000003d0: f9b0 adbd 2548 cdbd 93da d63d a279 d23d
000003e0: 5477 fbbd 5b98 9abd efa1 7d3c 7708 4c3d
000003f0: 5809 a4bd 1afb 023e b268 523c 1b47 adbc

lstm.bias_ih_l1 f4 [136]
-0.07729073 0.20006847 -0.04821765 -0.057844177 0.14824522 -0.15937147 0.12274062 -0.037601653
0.25374347 -0.0054205554 0.12236884 -0.03906323 -0.054534417 0.11159108 -0.0018220557 0.14370537
0.20049354 0.15341002 -0.04050692 0.22248821 0.10232947 0.108658634 -0.06880377 0.22174162
0.15097131 0.17994796 -0.061906993 -0.031658873 -0.12142941 0.10412143 0.12275164 -0.05193814
0.24985525 0.08366597 -0.05211045 0.031748477 0.0859212 0.057813026 0.09721751 -0.13731214
0.05760949 0.080450185 0.10461849 0.078463286 0.13202801 0.041398194 -0.041480396 -0.028806763
0.041439112 0.15292107 -0.06748804 -0.07861789 -0.04769876 0.15665492 -0.039063036 0.21225987
-0.0049084867 -0.11699382 0.21400073 0.14932601 -0.104561664 0.14056286 0.022301432 0.19705942
-0.11756983 0.13126893 -0.08508731 0.24603125 -0.07727702 0.061151583 -0.0438724 0.06492006
0.14406174 0.138239 0.08687497 0.0024115667 0.14952482 0.11921142 -0.019162476 0.08816554
-0.051613227 -0.023577208 -0.07685689 -0.0010386602 0.12609053 0.097087696 -0.16511177 0.123174064
-0.14240445 0.15356266 -0.10126559 -0.007932597 -0.07211202 0.053956155 0.0535895 0.15142378
-0.15676914 -0.0017610668 0.1388572 0.053136706 0.031486835 -0.007193261 0.19948624 0.03651626
0.12952699 0.087943524 0.025125515 -0.035605565 -0.009848047 -0.113360554 0.019787267 0.005996909
0.17263463 0.16881275 0.18758367 0.18362139 0.09425011 0.025216013 0.057757 0.238879
0.00471084 -0.03111232 -0.07091723 0.09061602 0.10695941 0.043655157 0.17142732 0.28299
-0.07758346 0.16829053 0.026514556 0.18043286 -0.12684491 -0.09614254 -0.010801791 0.2347247
00000000: 9a4a 9ebd c0de 4c3e df7f 45bd 04ee 6cbd
00000010: 98cd 173e 4632 23be 6f5f fb3d 3104 1abd
00000020: aaea 813e ea9e b1bb 849c fa3d c400 20bd
00000030: 7b5f 5fbd dd89 e43d 0bd2 eeba 8027 133e
00000040: 2e4e 4d3e 8417 1d3e 96ea 25bd f3d3 633e
00000050: 1d92 d13d 6b88 de3d fee8 8cbd 3c10 633e
00000060: 3998 1a3e 4744 383e 3092 7dbd bcac 01bd
00000070: fcaf f8bd 9e3d d53d 3665 fb3d 16bd 54bd
00000080: 0eda 7f3e 1059 ab3d c471 55bd b10a 023d
00000090: 74f7 af3d 5acd 6c3d f919 c73d 8e9b 0cbe
000000a0: eef7 6b3d 11c3 a43d 3842 d63d 5cb1 a03d
000000b0: 5a32 073e 2791 293d 59e7 29bd 29fc ebbc
000000c0: 0fbc 293d 5797 1c3e 2b37 8abd 6b02 a1bd
000000d0: c65f 43bd 266a 203e 9000 20bd a75a 593e
000000e0: 5fd7 a0bb 759a efbd 0223 5b3e ebe8 183e
000000f0: 6d24 d6bd b6ef 0f3e 7eb1 b63c f2c9 493e
00000100: 73c8 f0bd 5d6b 063e 4142 aebd 9eef 7b3e
00000110: 6a43 9ebd 157a 7a3d 8cb3 33bd cff4 843d
00000120: ec84 133e 868e 0d3e 81eb b13d 600b 1e3b
00000130: 091d 193e 1e25 f43d a0fa 9cbc 2290 b43d
00000140: 6468 53bd fd24 c1bc 2567 9dbd a723 88ba
00000150: e01d 013e ead5 c63d 0f13 29be af42 fc3d
00000160: 79d2 11be 883f 1d3e 5564 cfbd b9f7 01bc
00000170: 77af 93bd 2101 5d3d aa80 5b3d d60e 1b3e
00000180: 1788 20be 99d3 e6ba 9530 0e3e e0a5 593d
00000190: 57f8 003d 72b5 ebbb 1f46 4c3e 1392 153d
000001a0: b9a2 043e bc1b b43d 06d4 cd3c 24d7 11bd
000001b0: b459 21bc 9429 e8bd e818 a23c b881 c43b
000001c0: 22c7 303e 40dd 2c3e ef15 403e 3f07 3c3e
000001d0: 3406 c13d d091 ce3c 9b92 6c3d b29c 743e
000001e0: 645d 9a3b 44df febc 0d3d 91bd e494 b93d
000001f0: 890d db3d c0cf 323d a58a 2f3e 11e4 903e
00000200: 14e4 9ebd 5a54 2c3e 0e35 d93c 64c3 383e
00000210: a2e3 01be 61e6 c4bd fff9 30bc ac5b 703e

lstm.bias_hh_l1 f4 [136]
0.11358228 0.0076254504 0.18131703 -0.014741852 0.2729716 -0.083762474 0.07152828 0.17167003
0.10383009 0.07522075 0.10456965 -0.03983214 0.087323174 0.20055127 0.32431164 -0.07231471
-0.10709458 0.10457245 -0.06513318 -0.051912 0.09578061 -0.004639979 0.06958997 0.15147038
0.16077141 0.24954012 0.18361466 -0.08780554 0.03612908 0.19114158 0.03856364 -0.121384636
0.22107 0.113870464 0.06315361 -0.041861087 -0.13016628 0.03349605 0.06137268 -0.14497706
0.070099205 -0.11139048 0.085323475 0.1356355 0.006001434 0.094454736 0.0027592685 0.15523402
0.1598511 0.21865618 -0.06743994 -0.05145892 -0.023326192 0.22420715 0.1049665 -0.055104475
0.050179478 -0.105341196 0.018160123 0.24695061 -0.0361238 0.052113444 -0.08391966 -0.06348098
0.14060427 0.07315906 0.22834758 0.21611454 0.15640077 -0.10847771 -0.07153676 0.0532272
-0.001003998 0.07358837 -0.1587385 0.1157808 0.0012851 0.14436366 -0.06872113 0.012994496
0.052955322 0.16577716 0.11944432 0.09917827 -0.13323577 0.047766272 -0.009787562 -0.100701466
0.14663112 0.1385068 0.18128969 -0.14802793 -0.12400011 -0.032000884 0.057023544 0.12326073
-0.0063195014 0.12954323 -0.07037757 0.035484686 0.009286643 0.13520937 0.11574168 0.037941966
-0.07441165 0.011200019 0.048280478 -0.1350288 -0.038104743 0.122043714 0.22023746 -0.13518995
-0.114138484 0.22123028 0.073586814 0.09586339 0.22690599 -0.01697146 -0.10583524 0.051227022
0.06302945 0.18750459 0.18293184 -0.01770533 0.20274194 0.13906652 0.17474681 0.14799462
0.08111449 0.0664265 -0.03808085 0.19815075 0.061985165 -0.08483677 0.2765385 0.15192047
00000000: d49d e83d eade f93b 2cab 393e cf87 71bc
00000010: efc2 8b3e a98b abbd 6b7d 923d 45ca 2f3e
00000020: dfa4 d43d 560d 9a3d 9d28 d63d 0727 23bd
00000030: 7ed6 b23d 505d 4d3e 2d0c a63e bc19 94bd
00000040: 6754 dbbd 152a d63d 8b64 85bd ada1 54bd
00000050: a028 c43d f70a 98bb 3085 8e3d 0d1b 1b3e
00000060: 43a1 243e 7287 7f3e 7b05 3c3e 64d3 b3bd
00000070: 16fc 133d 9eba 433e e8f4 1d3d 8298 f8bd
00000080: 2d60 623e eb34 e93d ae56 813d 8876 2bbd
00000090: 4f4a 05be 2733 093d eb61 7b3d de74 14be
000000a0: 2c90 8f3d b120 e4bd 13be ae3d 08e4 0a3e
000000b0: ada7 c43b 7c71 c13d d8d4 343b abf5 1e3e
000000c0: 02b0 233e 68e7 5f3e f41d 8abd 97c6 52bd
000000d0: 9216 bfbc 8f96 653e adf8 d63d 3bb5 61bd
000000e0: ff88 4d3d 20bd d7bd 8ac4 943c 9fe0 7c3e
000000f0: 8df6 13bd e874 553d 12de abbd 5102 82bd
00000100: 91fa 0f3e 6bd4 953d f3d3 693e 214d 5d3e
00000110: 8627 203e 9029 debd dd81 92bd c404 5a3d
00000120: 9598 83ba 80b5 963d 588c 22be 7c1e ed3d
00000130: cd70 a83a 11d4 133e aabd 8cbd dee6 543c
00000140: aee7 583d 7dc1 293e 399f f43d fa1d cb3d
00000150: f56e 08be 91a6 433d 035c 20bc 923c cebd
00000160: 7826 163e bad4 0d3e 01a4 393e a294 17be
00000170: c5f3 fdbd 5c13 03bd 8591 693d 1f70 fc3d
00000180: d213 cfbb fba6 043e 1e22 90bd 6458 113d
00000190: 0127 183c 5374 0a3e f909 ed3d 0969 1b3d
000001a0: 2365 98bd 4980 373c c0c1 453d fd44 0abe
000001b0: b813 1cbd 0ef2 f93d ee85 613e 3c6f 0abe
000001c0: 70c1 e9bd 318a 623e afb4 963d 0654 c43d
000001d0: 0b5a 683e bb07 8bbc 25c0 d8bd 6dd3 513d
000001e0: 9615 813d 3401 403e 7c52 3b3e c50a 91bc
000001f0: 959b 4f3e 7467 0e3e d4f0 323e e78b 173e
00000200: 5b1f a63d 9e0a 883d aafa 1bbd 08e8 4a3e
00000210: 28e4 7d3d e7be adbd 7496 8d3e 0a91 1b3e

fc1.weight f4 [34, 1020]
0.008513169 0.013747416 -0.008218411 -0.028858803 0.010456062 0.016686881 0.03433866 -0.021823606
0.005510213 -0.017313955 -0.02469356 -0.023514874 9.17003e-05 0.030231507 0.055562433 -0.014934107
0.034334328 -0.02172674 0.010623485 -0.015704868 0.0063309358 -0.042691603 -0.022960607 0.02110972
0.018784001 -0.06881431 -0.0039952854 -0.0040416988 0.002633366 -0.0081825415 -0.0020229938 -0.0062120776
-0.018857736 -0.008576032 -0.040029373 0.059589464 0.01618203 0.022083787 0.045955077 -0.007827593
-0.012100602 -0.0063354885 -0.01996348 -0.043720353 -0.050986137 -0.05027114 0.0148514155 0.08834731
0.09215281 -0.026084168 0.020177301 -0.038195457 0.019532679 -0.065468185 0.0387935 0.015286916
0.029864026 0.011318044 0.022852475 -0.086119786 0.08020474 -0.017729832 -0.0014398337 -0.056676064
-0.031127771 -0.007065571 -0.012851113 0.016338602 -0.014076645 0.058161873 0.02604966 -0.01749577
0.06916191 -0.011007747 0.014521921 -0.0005525236 -0.015525642 -0.04160398 -0.01988398 -0.06666206
0.044711772 0.2121008 0.0813059 -0.017278565 0.015219664 -0.0037240523 -0.016179098 -0.019561278
0.025165534 -0.030220706 0.05127865 -0.022612195 0.02853955 -0.0779615 0.097261384 -0.008374203
-0.017697642 -0.06082874 -0.035155587 -0.02512118 0.017971382 -0.009962469 -0.057560306 0.012280945
-0.014171106 -0.013637666 0.1194144 0.0024420442 -0.02658315 -0.00418374 -0.041902717 -0.03517182
-0.0226457 -0.07516443 0.115811154 0.17513332 -0.03461911 -0.04975946 0.042529117 0.0026914407
0.003586371 -0.019642891 0.017241258 -0.017692233 0.04799896 -0.00837726 0.042583235 -0.058220673
0.04743945 -0.016111128 0.040356815 -0.06840539 -0.038903188 -0.0014177713 0.0046345084 0.0037003318
-0.06553147 0.017314786 -0.04780437 0.0020781385 0.18811782 -0.029951198 -0.002941429 -0.02403712
-0.009693749 -0.031897113 -0.03516465 -0.043570638 0.16997914 0.050597318 -0.08420716 -0.039403114
0.04858182 -0.0030344862 0.027965546 -0.026019156 0.015126504 0.0006780125 0.02190791 0.0058700945
0.081213556 -0.04837679 0.08378525 -0.021108832 0.0019681277 -0.051723722 0.011854406 -0.01600665
-0.051340714 0.03240833 -0.050325923 0.025260333 -0.0511299 0.00130469 0.14751478 0.014601661
0.018197885 0.021065595 -0.03539947 -0.033270102 -0.013798148 -0.051281236 0.13674606 0.03497478
-0.073779814 -0.07674023 0.026024297 0.0045357 0.015841573 -0.06467455 0.008161376 -0.024136547
-0.0024429318 0.057912238 0.12614013 -0.005180769 0.06312738 -0.02328982 0.0037159664 -0.048556942
0.020516258 0.05438284 -0.04258513 0.04495081 -0.06774561 0.0028602954 -0.048184287 -0.00062449026
0.11066261 -0.029806681 0.025769522 -0.009258331 -0.012706756 0.016102813 0.0025154548 -0.07768125
0.12318996 -0.014118995 -0.021772258 -0.035230413 0.021448774 -0.023511821 -0.011303224 -0.059332147
-0.029307859 -0.023110291 0.02214302 0.016863972 0.13094954 0.01683138 0.035238698 -0.01853426
0.007049761 -0.043716766 0.014766424 0.055898067 -0.0060264766 0.03999662 -0.08108331 -0.0147727365
-0.035685442 0.041918937 0.035583913 0.0030656185 0.025984544 -0.018929278 -0.023877028 -0.02785807
-0.002629806 -0.019059222 0.11358774 -0.007455659 -0.03225852 -0.059069492 0.061046537 -0.00032466807
00000000: d27a 0b3c d83c 613c 84a6 06bc 4c69 ecbc
00000010: e74f 2b3c edb2 883c b2a6 0c3d 6bc7 b2bc
00000020: 048f b43b ffd5 8dbc 264a cabc 44a2 c0bc
00000030: 394f c038 11a8 f73c 6f95 633d 2fae 74bc
00000040: 27a2 0c3d 47fc b1bc 200e 2e3c 7fa7 80bc
00000050: bd73 cf3b 64dd 2ebd e217 bcbc 4bee ac3c
00000060: e8e0 993c 84ee 8cbd e2ea 82bb 3a70 84bb
00000070: 8d94 2c3b 1110 06bc 3494 04bb af8e cbbb
00000080: 8a7b 9abc 7c82 0cbc d7f5 23bd 1514 743d
00000090: 2d90 843c 0fe9 b43c 643b 3c3d 4e3f 00bc
000000a0: 9a41 46bc ee99 cfbb 748a a3bc 1d14 33bd
000000b0: d7d6 50bd 1ce9 4dbd 5a53 733c 6fef b43d
000000c0: 9dba bc3d 77ae d5bc de4a a53c d772 1cbd
000000d0: ff02 a03c 2f14 86bd efe5 1e3d f975 7a3c
000000e0: 67a5 f43c 516f 393c 1d35 bb3c 925f b0bd
000000f0: 6242 a43d 273e 91bc cdb8 bcba 2925 68bd
00000100: abff febc 4e86 e7bb 7a8d 52bc 88d8 853c
00000110: baa1 66bc 253b 6e3d 1966 d53c 4a53 8fbc
00000120: c2a4 8d3d d659 34bc 5aed 6d3c 3bd7 10ba
00000130: 435f 7ebc ef68 2abd bae3 a2bc 1e86 88bd
00000140: b123 373d f430 593e b583 a63d c78b 8dbc
00000150: e65b 793c 3b0f 74bb 078a 84bc f93e a0bc
00000160: f327 ce3c 6a91 f7bc 9009 523d 363d b9bc
00000170: c6cb e93c 47aa 9fbd fa30 c73d f433 09bc
00000180: a5fa 90bc 8f27 79bd 4eff 0fbd efca cdbc
00000190: b838 933c a039 23bc 5bc4 6bbd 0436 493c
000001a0: ed2d 68bc 8470 5fbc 898f f43d b40a 203b
000001b0: e8c4 d9bc c117 89bb 2fa2 2bbd 5410 10bd
000001c0: 7a83 b9bc cfef 99bd 662e ed3d 2656 333e
000001d0: c5cc 0dbd 93d0 4bbd 0333 2e3d e262 303b
000001e0: 5209 6b3b 21ea a0bc 8a3d 8d3c 4def 90bc
000001f0: 8f9a 443d c640 09bc c26b 2e3d cd78 6ebd
00000200: de4f 423d 7cfb 83bc 304d 253d 2018 8cbd
00000210: f358 1fbd 83d4 b9ba 13dd 973b 4481 723b
00000220: 5d35 86bd bdd7 8d3c 84ce 43bd 6131 083b
00000230: f5a1 403e 375c f5bc fdc4 40bb 7fe9 c4bc
00000240: 88d2 1ebc 8ca6 02bd cf08 10bd 2077 32bd
00000250: 030f 2e3e 223f 4f3d ce74 acbd 2965 21bd
00000260: bbfd 463d 3bde 46bb 0018 e53c 2026 d5bc
00000270: 28d5 773c a6bc 313a 3878 b33c ec59 c03b
00000280: 4b53 a63d be26 46bd 9a97 ab3d 6eec acbc
00000290: b4fb 003b 41dc 53bd fc38 423c 6120 83bc
000002a0: a44a 52bd 99be 043d 8e22 4ebd c2ee ce3c
000002b0: 966d 51bd 2202 ab3a 1d0e 173e ce3b 6f3c
000002c0: bb13 953c c191 ac3c 09ff 10bd 3b46 08bd
000002d0: a111 62bc 460c 52bd 2907 0c3e b741 0f3d
000002e0: df19 97bd fb29 9dbd e830 d53c 36a0 943b
000002f0: 30c6 813c 1774 84bd 4bb7 053c 02ba c5bc
00000300: 9819 20bb 6235 6d3d e12a 013e 71c3 a9bb
00000310: ee48 813d 4bca bebc 9287 733b a5e3 46bd
00000320: b611 a83c 8ac0 5e3d bf6d 2ebd 571e 383d
00000330: 36be 8abd cb73 3b3b e35c 45bd d5b4 23ba
00000340: 14a3 e23d 242d f4bc 9b1a d33c 41b0 17bc
00000350: ff2f 50bc 0cea 833c 54da 243b 5917 9fbd
00000360: 054b fc3d 5b53 67bc bc5b b2bc c44d 10bd
00000370: 57b5 af3c dd9b c0bc 2831 39bc 4406 73bd
00000380: 0917 f0bc cb51 bdbc 4765 b53c 5026 8a3c
00000390: a317 063e f6e1 893c 7456 103d 29d5 97bc
000003a0: ae01 e73b 5a10 33bd dfee 713c 5ff5 643d
000003b0: c079 c5bb 7fd3 233d 020f a6bd 5909 72bc
000003c0: e62a 12bd 31b3 2b3d 70c0 113d 8be8 483b
000003d0: 8add d43c 9311 9bbc c299 c3bc 9b36 e4bc
000003e0: d358 2cbb 1622 9cbc b0a0 e83d 9a4e f4bb
000003f0: 8321 04bd daf2 71bd ef0b 7a3d 3638 aab9

fc1.bias f4 [34]
-0.021314094 -0.0049425988 0.0049831793 0.015780503 -0.03676339 -0.003292495 -0.025747363 0.017379196
0.014307508 0.02021338 -0.0123826265 0.025052292 -0.017017597 -0.0046141157 -0.008128683 -0.006589721
0.020645088 -0.008488361 0.033655815 0.024411997 0.0046742135 0.036568057 0.027829442 -0.036606327
-0.0012528739 0.013254864 0.0272809 -0.016863093 -0.008626442 0.035485618 -0.018561939 -0.0015682651
-0.0030659467 0.020922847
00000000: e59a aebc 86f5 a1bb f049 a33b 1d46 813c
00000010: 3595 16bd e6c6 57bb 22ec d2bc d15e 8e3c
00000020: 0a6a 6a3c 8896 a53c 80e0 4abc 773a cd3c
00000030: 7d68 8bbc 0232 97bb 2b2e 05bc 96ee d7bb
00000040: e31f a93c c412 0bbc aeda 093d abfb c73c
00000050: 252a 993b 63c8 153d 92fa e33c 84f0 15bd
00000060: 7937 a4ba ee2a 593c 327c df3c 7824 8abc
00000070: ec55 0dbc 5e59 113d 350f 98bc 3f8e cdba
00000080: 0dee 48bb 6466 ab3c
